CSNet96_04.pt (torch_old, 481275 bytes, 5 tensors)

cssample.weight f4 [40, 1, 32, 32]
000000 cf 11 cf 3a 4a 47 7e ba e3 0a bd 3a f2 e9 84 bb
       0.0015798154 -0.0009699954 0.00144228 -0.0040562088
000010 50 4a 69 bc 21 f9 bd bc 63 ce 0c bd 59 81 f8 bc
       -0.014238909 -0.023190083 -0.034376513 -0.030335115
000020 fc 64 12 bd 7f 7f 35 bc f5 71 92 bb 19 e6 4c 3b
       -0.035740837 -0.011077761 -0.004469151 0.0031265079
000030 4a 09 42 3c eb 83 5f 3c 48 d0 44 3b 51 37 3a 3c
       0.011843035 0.013642292 0.0030031372 0.0113657275
000040 51 a0 20 3c 74 d9 a3 3b 8d 26 2f bb e7 95 ef 39
       0.009803847 0.0050002877 -0.002672586 0.00045697318
000050 5b 7e 0f bc cb 32 7b bb 5e e3 1d bc 4c dd 23 bc
       -0.008758153 -0.0038329836 -0.009636728 -0.010001492
000060 97 7b a8 bb 0e 5c 91 3a 14 0f 1f bb 68 6a 9e bb
       -0.005141686 0.0011090057 -0.0024270462 -0.004834462
000070 9d 4c 2c 3b 2b 52 36 3c fb ab 90 3b 22 b2 dc 3b
       0.0026290782 0.011127989 0.004415033 0.0067351023
000080 25 4d 73 3b c4 66 6b 3c 1a 57 79 bb 91 1d 08 bc
       0.003712484 0.014367763 -0.0038046301 -0.00830783
000090 2c 27 c4 bc ca b8 cd bc c1 13 3b bd 21 e8 43 bd
       -0.02394446 -0.025112528 -0.045673136 -0.047828797
0000a0 55 ff 37 bd 8c 81 d4 bc c0 f5 b6 bc 3c 11 06 bb
       -0.044921238 -0.025940679 -0.02233398 -0.002045705
0000b0 62 ed 38 3c f9 65 ad 39 54 21 ed 3b aa 73 1d 3c
       0.011287065 0.00033073107 0.007236639 0.009610096
0000c0 8c 61 29 3b f4 cd 8d bb 0b e9 98 b9 b3 c4 31 bc
       0.0025845496 -0.00432753 -0.0002916533 -0.010850119
0000d0 fc fa 8c bb 5c bd a0 bc 4c 03 a6 bc 99 06 66 bc
       -0.0043023806 -0.019621544 -0.020265244 -0.014039659
0000e0 00 9b 69 bc 69 d8 ed bb d9 a0 3b 3b 10 c2 0c 3c
       -0.014258146 -0.007258464 0.0028629808 0.00859119
0000f0 b8 89 82 3c d0 5c b5 3c 92 0c 9a 3c 95 a5 fa 3b
       0.01593481 0.022138983 0.018804822 0.0076491334
000100 00 68 12 3c b6 dc fe 3b 22 2d 02 3c ce e8 9c b9
       0.008935928 0.0077777756 0.007945331 -0.00029928092
000110 f7 32 44 bc 82 40 fb bc a6 bc 43 bd 4f df 37 bd
       -0.011975042 -0.030670408 -0.04778733 -0.044890698
000120 15 e5 46 bd 2d 5f c0 bc ef f0 10 3b 41 f9 23 3c
       -0.048558313 -0.023482883 0.0022116264 0.010008157
000130 f5 89 92 3c dd ed 95 3c 85 7e 8d 3c ed 1a 50 3c
       0.017888049 0.018301899 0.017272243 0.012701732
000140 f0 99 65 3c bf 7f e9 39 3e 21 e3 3a 60 f2 07 bb
       0.014013752 0.000445364 0.0017328633 -0.0020743832
000150 b6 e1 62 bc a0 09 3f bc 0d 27 a3 bc 9c ef 91 bc
       -0.013847759 -0.01166001 -0.019916082 -0.01781445
000160 f3 60 8d bc 6a 59 4e bc 92 40 22 ba 84 0f 26 3c
       -0.017258143 -0.01259456 -0.00061894313 0.010135535
000170 79 4e c0 3c 2e ca 96 3c e9 d7 b4 3c e3 ec a0 3b
       0.023474919 0.018406954 0.02207561 0.0049110516
000180 cb 0b 75 3c de 32 52 3c 54 dc 5d 3c 34 71 c3 bb
       0.014956425 0.0128295105 0.0135413 -0.0059644226
000190 84 3a 35 bc 75 7e aa bc df b3 28 bd 2e 31 36 bd
       -0.0110613145 -0.020812253 -0.041187163 -0.044480495
0001a0 b3 d2 02 bd c4 19 1f bc 70 03 89 3c 84 11 0e 3d
       -0.03193922 -0.009710733 0.016725272 0.034684673
0001b0 7d 6c e5 3c ed 1f cc 3c 79 a2 ac 3c a8 8f 34 3c
       0.028005833 0.024917567 0.021073567 0.011020578
0001c0 a6 f9 13 3c 44 7a eb 3b 42 00 84 bb 0d 91 90 bb
       0.009031689 0.007186206 -0.004028351 -0.0044118227
0001d0 ca a0 99 bc 94 0e 78 bc d2 4b 4c bc 73 18 ba bc
       -0.018753428 -0.015140194 -0.012469249 -0.022716736
0001e0 fe 22 43 bc 4f 00 09 bc 59 46 09 bc 44 52 00 3c
       -0.011910198 -0.00836189 -0.008378589 0.007832114
0001f0 42 13 86 3c 45 73 c3 3c 2f 49 89 3c da 8d 94 3c
       0.016366605 0.023858676 0.01675853 0.018134046
000200 6b ea 76 3c d1 ab 44 3c e4 5a 44 3c 65 1e 17 3c
       0.015070538 0.012003855 0.011984561 0.009223555
000210 f5 b8 03 bc c3 24 d7 bc 65 c0 fc bc 63 a2 e0 bc
       -0.008039703 -0.026262647 -0.03085346 -0.027421182
000220 59 97 93 bc 0e 8f e7 3b 01 3e ab 3c d6 af 0d 3d
       -0.018016504 0.007066614 0.02090359 0.03459152
000230 69 de 0a 3d b4 3a b6 3c 5c 42 a1 3c a2 48 49 3c
       0.033903513 0.022244789 0.019684963 0.012285383
000240 41 5e 0c 3c 24 48 8f bb 19 8e b6 ba 8f 2e bd bb
       0.008567394 -0.0043726135 -0.0013927846 -0.0057733725
000250 68 39 9a b8 72 bd 69 bc 16 92 82 bc e5 91 b5 bc
       -7.353985e-05 -0.014266359 -0.0159388 -0.022164294
000260 a2 86 89 bc 10 d8 69 bc 6d 79 35 bc fc 60 bc 39
       -0.01678783 -0.014272705 -0.011076313 0.00035930413
000270 21 f5 94 3c e5 aa 72 3c 6a e4 51 3c 20 ab 6a 3c
       0.018183293 0.014811252 0.012810806 0.014323026
000280 4a 16 8c 3b d3 0f a0 3c 19 f7 8d 3b da 21 e4 bb
       0.004275118 0.019538796 0.004332435 -0.0069620432
000290 70 6b bf bc e7 66 bb bc b9 52 d9 bc 2f e6 ba bc
       -0.02336666 -0.022876216 -0.026528703 -0.022814838
0002a0 ce f9 55 bc c5 ad b0 3b 2f a8 ce 3c 54 85 d4 3c
       -0.013060046 0.0053918087 0.02522668 0.025942482
0002b0 e3 83 d6 3c 4a 77 d1 3c bd 38 f6 3b 50 46 b4 3b
       0.026185935 0.025569577 0.007514088 0.005501546
0002c0 0a 2a 76 3b 4c 1d 5f bb f6 e8 89 bb 2b fa 07 bc
       0.0037561678 -0.0034044562 -0.0042086793 -0.008299391
0002d0 15 79 27 bc ce 86 2d bc 5a 04 54 bc 7d 49 be bc
       -0.010221739 -0.010591222 -0.012940491 -0.023228401
0002e0 c9 e7 c0 bc 29 87 b2 bc 72 98 06 bc 0e c3 09 bc
       -0.023548024 -0.021792965 -0.008215057 -0.008408321
0002f0 dd c2 93 3b c2 70 4e 3c 6f fb 63 3c 7c 1a dd 3b
       0.0045093135 0.012600126 0.013914927 0.006747542
000300 f5 17 5c 3b c4 2e 69 3c a0 0d 2e 3c 69 13 6a bc
       0.0033583615 0.014232341 0.010623366 -0.014286854
000310 36 90 b1 bc fc 42 e2 bc 4d 35 15 bd 3a 38 d5 bc
       -0.02167521 -0.027619831 -0.036427785 -0.026027787
000320 5c c9 83 bc c3 d1 2d bb e5 f8 24 3c ef 05 90 3c
       -0.016087227 -0.0026522733 0.010069107 0.017580954
000330 7e d1 59 3c ea 5e ac 3b eb 52 13 bb f8 37 a1 bb
       0.013294576 0.005260338 -0.0022479843 -0.004920002
000340 29 45 13 bc 58 0f 60 bc 37 72 33 bc 77 5b 0b bc
       -0.008988657 -0.013675533 -0.010952524 -0.008505694
000350 82 01 2f bc 47 fb 87 bc 8c 55 2f bc 28 d3 3c bc
       -0.010681512 -0.01659931 -0.010701548 -0.011524953
000360 e2 d3 7d bc 18 fa aa bc 41 93 93 bc e6 27 f4 bb
       -0.015492411 -0.020871207 -0.018014552 -0.0074510453
000370 4a d6 30 3c 33 f4 0f 3c 99 c2 c8 3c 8a 00 32 3c
       0.010793278 0.008786249 0.024506854 0.010864386
000380 b6 20 dc 3b 05 12 e3 3c 74 e2 4d 3c 4a bf 8d b9
       0.0067177666 0.027718553 0.012566198 -0.00027036137
000390 f4 43 93 bc 84 e2 c1 bc 98 13 d3 bc d7 1a ee bc
       -0.017976739 -0.023667581 -0.025766179 -0.029065533
0003a0 18 d2 8f bc 57 8c bf bb 6d f3 3f 3b 9b 18 21 3b
       -0.017556235 -0.0058455872 0.002928938 0.0024581316
0003b0 b8 82 89 3b 5b e4 5e bb d8 d9 25 bc 53 a3 81 bc
       0.004196491 -0.0034010622 -0.010122739 -0.01582495
0003c0 1f 59 c5 bb 98 12 39 bc 04 e8 51 bc c4 e7 71 bc
       -0.006022587 -0.011295937 -0.0128116645 -0.01476473
0003d0 f5 a5 da bb 58 63 58 bc 23 8e 9d bc ad c1 ef bb
       -0.0066726157 -0.013207279 -0.019232815 -0.007316789
0003e0 bc 60 5f bc a0 af 7c bc ff 62 09 bc 40 c1 82 bb
       -0.013633903 -0.015422732 -0.008385419 -0.0039903224
0003f0 fd 0d 36 3c 58 98 a1 3c b2 98 81 3c 43 60 33 3c
       0.0111117335 0.019725963 0.015819881 0.010948244

initresc.weight f4 [1024, 40, 1, 1]
000000 b7 81 88 bc 7e 8c 87 bd 51 cd fc bc e4 3c 79 3c
       -0.016663415 -0.06618594 -0.030859621 0.015212271
000010 74 b3 f4 bb 55 84 12 3c 8f af ba bc 62 a8 5d bd
       -0.0074676815 0.008942683 -0.022788791 -0.05411566
000020 da 78 e7 3c ca 99 d0 3d a2 8a 2f bc dc 7d 99 bc
       0.028255869 0.10185583 -0.010714205 -0.018736772
000030 93 44 61 bd c2 d8 77 bc 30 b0 ae 3b 4e 0f a9 bc
       -0.054997038 -0.015127363 0.005331062 -0.02063718
000040 78 0f 63 bd 52 81 3c bc 94 77 19 bc 63 81 fe 3c
       -0.055434674 -0.011505442 -0.009366889 0.031067556
000050 1c 21 6b bc d8 10 c9 3d a8 51 c2 bd 06 3a 92 3c
       -0.014351156 0.09817666 -0.09488231 0.017849933
000060 bb b0 02 bd e8 cd 17 bc 4d 05 7c bc c4 6b 9d 3c
       -0.031906825 -0.0092654005 -0.015382123 0.019216426
000070 91 fa ae b9 9d bd 6e 3c d1 bd f9 3c df f1 fa 3d
       -0.00033374553 0.0145715745 0.03048602 0.122531645
000080 ed 0e cc 3c fa b1 d5 bc 17 90 46 3d 20 f8 ae 3d
       0.02490946 -0.026085842 0.04847726 0.0854342
000090 a1 92 f5 bb 90 3d 10 bd b7 7c 7d 3d 78 de 47 3c
       -0.007494286 -0.03521496 0.061886515 0.012199037
0000a0 c2 aa aa 3c c4 54 99 bc 3d 27 19 bd e6 10 9b bc
       0.020833377 -0.018717177 -0.037390936 -0.018928956
0000b0 8d 64 1b bc 7e c1 27 3c 4d ad b9 3b 51 e4 80 bc
       -0.009484422 0.010239003 0.005666411 -0.01573387
0000c0 9e ee 5b 3c ab f3 65 3d bf c0 c2 3c a3 5c 02 bb
       0.01342359 0.056140583 0.02377355 -0.0019891642
0000d0 74 f7 07 bd fd a0 8c 3c 80 98 66 3c 3b 74 9e ba
       -0.033194974 0.017166609 0.014074445 -0.0012089083
0000e0 b2 e4 2a bd 76 b1 6f 3c 7f f3 8a 3c 76 ac fc bc
       -0.041722007 0.014629712 0.016961811 -0.030843955
0000f0 d5 37 f4 37 be 9e cf 3c a2 3f 0e bd 17 a7 8c 38
       2.9113065e-05 0.025344249 -0.034728654 6.706843e-05
000100 f4 32 93 bc d6 05 16 3b bf 26 d3 3b 62 21 9e 3c
       -0.017968632 0.0022891662 0.006443828 0.019303028
000110 64 4e 96 bc 4d a4 fe bb a2 c9 2d 3b d2 ac 80 3d
       -0.018347926 -0.007771051 0.0026517888 0.06282963
000120 e6 bd 8f 3b 56 55 26 bd 41 41 24 3c 85 15 70 3d
       0.0043866513 -0.040608726 0.010025323 0.058614273
000130 e0 46 4e 3c c1 76 db bc 60 f1 a3 3b 73 c2 84 3b
       0.01259014 -0.026790025 0.0050031394 0.0040515005
000140 9d 52 9b 3a 8a 84 92 bc eb 4e 8b bc d9 30 f7 bc
       0.0011850182 -0.017885465 -0.017005404 -0.03017466
000150 ac 14 1b bc a4 8a 8a b7 96 90 92 bb 0a 97 b5 bc
       -0.009465378 -1.6515442e-05 -0.0044728024 -0.022166748
000160 30 ad 1b 3c b4 fc 46 3d bb dd b2 39 fc ed 39 bc
       0.00950174 0.04858084 0.00034116008 -0.011348244
000170 60 2b c8 bc 2f ca d2 3b 4d c6 b0 bb d1 d4 2c bc
       -0.024434745 0.0064327936 -0.005394733 -0.010548786
000180 44 4e d5 bc cf 71 73 3c bc 40 39 3b 3f 76 df bb
       -0.026038297 0.014858677 0.0028267344 -0.006819516
000190 49 58 03 b6 d6 08 56 3d 47 41 49 bd 2f 4b a1 3c
       -1.957191e-06 0.05225452 -0.04913452 0.01968917
0001a0 2c b2 5c bc e7 35 33 3a 65 f6 3c ba 1e 9d ab 3c
       -0.013470214 0.000683634 -0.00072083465 0.020948943
0001b0 2c f1 bd 3a b4 d0 46 bc 9f 60 ab 3c f1 62 85 3d
       0.001449143 -0.01213472 0.020920096 0.06513012
0001c0 6b bf dc ba 03 72 cd bc 83 c7 b4 3c 67 65 04 3d
       -0.0016841715 -0.02507878 0.02206779 0.032323267
0001d0 24 82 5a 3c 4a 72 53 bc 8d 11 8e 3c cf 34 3f 3c
       0.013336692 -0.012905667 0.017342353 0.011670305
0001e0 ad 27 26 bc 9e f1 dc bc 3b 34 4e bd b9 7b da bc
       -0.010141295 -0.02697068 -0.05034278 -0.026670324
0001f0 bf b4 21 bc 17 32 16 3b dc 35 a4 bc 6e 22 21 bd
       -0.009869753 0.002291804 -0.020045213 -0.039339475
000200 62 45 9a 3c 47 1f 46 3d 29 a6 c9 bb 6d 6a 01 bd
       0.018831912 0.048369672 -0.006153841 -0.031595636
000210 cc 17 59 bc df fa ee 3a 4e 18 d0 bb 97 14 36 bc
       -0.0132503025 0.0018232724 -0.0063505536 -0.011113307
000220 0c 42 1d bd 74 26 af 3b 80 dd 79 39 08 4b eb ba
       -0.038393065 0.00534516 0.00023829006 -0.0017951438
000230 90 ae 23 bb ce b6 47 3d 81 fb 25 bd e4 70 8a 3c
       -0.0024975874 0.04875832 -0.040523056 0.016899534
000240 20 ce 90 3b a3 83 37 bc c2 ff 6d ba 51 02 17 3d
       0.0044191033 -0.011200818 -0.00090789434 0.036867443
000250 90 16 88 bc 7c 08 f2 3b a9 73 43 3c e2 f3 a6 3d
       -0.016612321 0.0073862653 0.011929431 0.08151986
000260 a0 ca c1 3b 8b 66 ee bc 52 01 e6 3c 6a 3b 6d 3d
       0.0059140474 -0.02910163 0.028076801 0.05791799
000270 8e aa 3d 3c 7a c1 ba bc 44 04 0e 3d 64 1c 81 3c
       0.011576308 -0.022797335 0.034672037 0.015760608
000280 20 c4 04 bb a8 71 d7 bc d8 60 a3 bc f7 bf 14 bd
       -0.0020258501 -0.026299313 -0.01994364 -0.036315884
000290 12 4c 5b bc 8e 9f 32 bc 68 b5 96 bc 10 ed 2f bd
       -0.013384836 -0.010902299 -0.018397048 -0.04295069
0002a0 9e 7e d5 3c ab 24 bf 3c aa 5e 4c bc 39 3d 87 bc
       0.026061352 0.023332914 -0.012473742 -0.016508685
0002b0 d1 51 38 bc 14 cc 9d ba 1d 72 d0 bb 3c db 81 bc
       -0.011249975 -0.001203897 -0.0063612596 -0.01585161
0002c0 07 26 bf bc c1 e4 b9 3c 44 7f 6a 3b 32 28 2e bc
       -0.023333563 0.022692086 0.0035781423 -0.0106297005
0002d0 27 53 49 3b 46 5d 71 3d 82 26 31 bd 69 47 a0 3c
       0.0030719729 0.058926843 -0.043249615 0.019565301
0002e0 f6 d2 cd bc f4 63 bf 3b 85 3c 61 bc 74 74 76 3c
       -0.025125008 0.0058407728 -0.013747339 0.015042413
0002f0 b7 7c 32 bc 6e 21 5c 3b aa c9 11 3d 32 3e 8b 3d
       -0.010893992 0.0033589262 0.035592712 0.06798972
000300 26 c9 05 bc ab b9 95 bc ce 3b 0e 3d 7a b3 20 3d
       -0.008165633 -0.01827701 0.034725003 0.039233662
000310 fb 3c da 3c a4 19 a9 bc 34 4e 0d 3c 9d 70 a9 3c
       0.026640406 -0.02064211 0.008624602 0.020683581
000320 f6 4f 23 3c 56 b3 c8 bb 42 f2 42 bd fa 0c 3a bd
       0.009967795 -0.006124894 -0.047594316 -0.04542253
000330 bf f7 d5 bb b5 91 49 bc 60 58 5e bc 24 51 09 bd
       -0.006529778 -0.012302806 -0.013570875 -0.033524647
000340 b7 57 65 3c f4 e7 d7 3c a6 97 58 bc b4 ad 2a bc
       0.013997964 0.026355721 -0.01321975 -0.010417391
000350 d3 a3 9e 3b 9e c5 42 3c ae 1b 7f bc a9 9d 30 bc
       0.0048413067 0.011887936 -0.015570564 -0.010779777
000360 09 b9 af bc 2c 0b 32 3d b1 33 7e bc 03 cc 84 bc
       -0.021450536 0.043467686 -0.015515254 -0.016210562
000370 90 73 00 3c 36 f0 9d 3c 2f 35 a2 bc d4 62 98 3c
       0.007840052 0.01927958 -0.01980075 0.018601812
000380 87 2a aa 3c e8 ad ec bc a0 ca 0c 3a 7f c7 cb 3c
       0.020772232 -0.028891519 0.00053707696 0.0248754
000390 c1 69 20 bc 73 5a 47 bb 15 e2 04 3c e8 da 4b 3d
       -0.009790839 -0.0030418902 0.008110543 0.049769312
0003a0 d6 a5 68 bc cb d0 18 bd ee 42 7a 3c e9 de 0f 3d
       -0.014199695 -0.037308495 0.015274746 0.035124693
0003b0 39 21 07 3c 59 c7 03 bd 03 eb 1a 3d 8f e3 83 3b
       0.008247667 -0.032172535 0.03782178 0.00402493
0003c0 e7 9d ab bc 80 92 8e 3b cb f5 c7 3a 51 a3 a2 bd
       -0.020949317 0.0043509603 0.0015255747 -0.079413064
0003d0 6f bb 69 bd d8 0d 74 bb 94 b3 e5 bc 2e d8 9e bc
       -0.057063516 -0.0037239697 -0.028039731 -0.019390192
0003e0 dd 8c 18 3c fd 96 a0 3c 8d ce 92 3c cd 87 8f bc
       0.009310928 0.019603247 0.017920757 -0.01752081
0003f0 2e 65 dc 3b 14 c3 8e b8 f6 5e c8 bc 0d a4 aa bc
       0.0067259287 -6.807424e-05 -0.024459343 -0.020830179

firstresc.weight f4 [64, 1, 3, 3]
000000 b1 1d 24 3d 59 1f 95 bc 84 33 8a 3a 4e 39 09 3d
       0.04006738 -0.018203424 0.0010543917 0.033501916
000010 e4 11 84 bb bb 36 ed bc 1b 91 b2 3c 2b 08 77 bc
       -0.004030453 -0.028956762 0.021797707 -0.015077631
000020 e5 3e 35 bd 65 a9 54 bb 60 6e 92 bd 3f 17 5a bc
       -0.044249434 -0.00324496 -0.071499586 -0.013311206
000030 91 45 ea 3d 0c 4c 0e 3d fb 86 48 3d e6 62 78 bc
       0.1143905 0.034740493 0.048956852 -0.015160298
000040 3d 4e 00 be ca da f4 3c 52 d1 22 3d 93 68 ed 3d
       -0.12529846 0.029889483 0.039750405 0.115922116
000050 56 ec d1 bd a2 27 5f bd 60 3c 6e bd ee 28 94 3d
       -0.10250156 -0.054481156 -0.058163047 0.07234369
000060 d2 9f 50 bc 94 f2 af bb 0b 7f 9b 3b 86 f1 b0 3c
       -0.012733417 -0.0053694937 0.0047453693 0.021599542
000070 c8 57 2b 3d 38 c6 96 ba 3a 89 1b 3d 72 c4 f6 3c
       0.04183176 -0.0011503166 0.037972666 0.03012297
000080 32 7b 0d bd 81 68 3b 3c 64 bf 2f bd 8e fa 82 bd
       -0.034541316 0.01143849 -0.042907134 -0.06395446
000090 04 ff e2 3c 9c 16 e5 3c 86 0a 8b bb 01 6a e5 3c
       0.027709492 0.027964883 -0.004243198 0.028004648
0000a0 42 6f a1 b9 08 24 00 bd 18 5e 98 3b 63 9d a8 bc
       -0.00030791207 -0.031284362 0.0046498887 -0.02058286
0000b0 50 4f 12 bd 0f 7d 4b ba 75 23 3d 3d b1 bd 02 3d
       -0.03572017 -0.00077624706 0.046176393 0.031919185
0000c0 86 08 58 3c fd 33 17 bc 3c 5d 2c b9 ba 74 e5 bc
       0.013185626 -0.009228704 -0.00016437931 -0.028009761
0000d0 c3 67 17 bd 53 03 d7 bc 39 65 40 bc b9 e8 64 bd
       -0.03696419 -0.026246702 -0.011742883 -0.055886004
0000e0 af cf 92 bc 19 e1 18 3c d3 a3 39 bb f2 9b 40 3b
       -0.017921297 0.009331011 -0.0028326407 0.0029389826
0000f0 17 b5 a2 3c 6d fd 27 3d 6e af 35 3c 71 94 a3 bc
       0.019861741 0.04101317 0.011089189 -0.019968243
000100 0d 17 a0 3b f7 fd ed 3b c5 65 93 bc c1 f8 f3 bd
       0.0048855604 0.007262941 -0.017992863 -0.119126804
000110 e0 4e 52 bd c4 12 fe 3c e8 7d 58 3c 86 78 1f 3e
       -0.051344752 0.031014808 0.013213612 0.1557332
000120 95 73 70 bc fb ee b7 3c bb c5 0d 3d ee 49 c0 bc
       -0.014675994 0.022452822 0.0346124 -0.023472752
000130 c8 d5 2c bc ce 31 9a 3c 3a bd 73 bc 4f 16 1c bb
       -0.010549016 0.018822577 -0.014876658 -0.0023817008
000140 6c 44 7e bc 37 51 c3 3c 91 24 17 bc ff da a0 bb
       -0.015519243 0.023842437 -0.009225027 -0.004908919
000150 ea 89 bb bc 48 73 84 bc 07 46 a2 3b a4 70 90 3b
       -0.022892911 -0.016168252 0.0049521956 0.004407959
000160 6c 96 7a 3a 48 cb 9f 3c 77 58 07 3d 3c b9 7f bc
       0.0009559158 0.019506112 0.03304335 -0.015608128
000170 2c 0c 04 bd 11 45 a0 3d 84 cf 4b bc 73 2d f5 bc
       -0.03223817 0.07825673 -0.012439612 -0.029928898
000180 2f 49 8a 3d f0 c8 40 bd 15 b2 1f bd 51 01 61 bd
       0.0675224 -0.04706663 -0.03898819 -0.054932896
000190 62 ba b8 3c 0e 95 30 3d 83 29 1c bd c4 0a ee 3b
       0.022549812 0.0431109 -0.038125526 0.007264467
0001a0 79 79 9c 3d f0 32 53 bd 69 76 1c bc 14 27 b6 3c
       0.076403566 -0.05156225 -0.009549716 0.02223543
0001b0 01 6b dc bc 55 e2 0a bc bb 9f 01 bc de 9f 24 bc
       -0.026906492 -0.008476813 -0.007911618 -0.010047881
0001c0 d7 98 81 3c 1d e1 5c 3b 6f f1 9a 3b b4 8f b7 3c
       0.01581995 0.0033703514 0.004728488 0.02240739
0001d0 e1 ef 6a 3b c4 84 c7 bb f5 00 82 bd ed c3 7c bd
       0.0035848545 -0.006088825 -0.06347839 -0.061710287
0001e0 aa 60 fb 3c 49 67 ab bc fd 42 20 bd 8d ef 61 3d
       0.030685741 -0.020923274 -0.039126385 0.055160094
0001f0 0d 16 69 3d 02 d8 11 3d 5b cc 87 bd 40 0d a9 bc
       0.056905795 0.03560639 -0.066307746 -0.0206362
000200 cd be 1a 39 aa fa 06 bc cb 68 c0 3c 76 a7 f7 bb
       0.00014757663 -0.008238474 0.02348747 -0.0075578047
000210 3f 50 c2 bc af ce aa 39 a1 44 d5 3d da d9 c6 3b
       -0.023719905 0.00032578918 0.104134806 0.0060684504
000220 25 4b 16 bd 78 52 b3 bd 14 d8 58 3d a9 24 ff 3c
       -0.036692757 -0.08755964 0.052940443 0.03114541
000230 9a c2 f0 bd b6 93 c9 3d 87 c5 90 3d 64 99 f1 bb
       -0.11755867 0.09842627 0.07068925 -0.007373022
000240 6a 30 56 3d 19 57 7e 3c 74 b0 7e bc e1 7b 20 3d
       0.052292265 0.015523695 -0.015544999 0.03918064
000250 1e 91 0c bc b5 3c 0a bd 0f 52 eb 3b a2 6e cc bc
       -0.0085795205 -0.0337493 0.007181413 -0.024955098
000260 a5 bf 00 bd 51 85 00 bd 0a 4d 7b bd 0c 78 0c bd
       -0.031432766 -0.03137714 -0.061352767 -0.034294173
000270 fa 96 10 bc 1d 6b 1c 3c f7 d7 eb 3c b7 2f 62 3c
       -0.008825058 0.009547022 0.028789503 0.013805321
000280 2b 2f 3b 3d 1f 05 33 3d e8 da a6 3c 57 f7 66 bc
       0.04569928 0.043706056 0.020368055 -0.014097056
000290 37 9c bc bb c1 ef 2f 3c 7e 8f 15 bd 80 78 f0 bc
       -0.005755927 0.010738314 -0.036513798 -0.029354334
0002a0 e5 9b 67 3c ba 9e 49 3b c4 2f e1 3b df f5 ca 3c
       0.014136289 0.0030764774 0.006872149 0.024775444
0002b0 de 92 b3 3c 26 69 10 bc 1e 88 bf bb 43 cb 83 bc
       0.021920618 -0.008814132 -0.005845084 -0.016088134
0002c0 1f 1b db bc e8 e5 6f 3c 61 e7 d5 3b b7 a4 39 bc
       -0.02674633 0.014642216 0.0065278267 -0.011330775
0002d0 e2 cc 65 bc 67 82 c3 3c b4 02 8c 3d f2 0a 75 bd
       -0.014025899 0.023865892 0.06836453 -0.05982489
0002e0 32 8b 44 bc 46 27 53 3d 2a 10 56 bd c3 ec a0 bc
       -0.011996077 0.051551126 -0.05226151 -0.019644147
0002f0 11 39 a6 3c 1c 94 c8 3b 95 ed 53 bc 40 47 63 bc
       0.020290883 0.0061211716 -0.012935062 -0.013871968
000300 87 4c 1e 3c 6a 6e d7 bb a9 9d ef bc a1 79 e5 3c
       0.0096618 -0.0065744417 -0.029249983 0.028012099
000310 8e d2 97 3c f7 be 3a bc a7 de db 3c 59 5b f4 3c
       0.018533017 -0.011398069 0.026839567 0.029828714
000320 d1 95 d7 bc 45 d8 66 3d f5 11 79 3d 9a 70 86 bc
       -0.026316555 0.056358594 0.06080814 -0.016411114
000330 aa d3 d9 bb 4e 6d a6 bc 06 a0 61 bd 6e 96 9e bb
       -0.006647547 -0.020315792 -0.05508425 -0.00483971
000340 b4 e7 12 bd 13 c5 65 bd 1b 71 fd 3c bb 4b 5f bb
       -0.0358655 -0.056096148 0.030937722 -0.0034072238
000350 7d 90 d8 bc 3a a3 4e 3d 11 f7 21 3d 80 34 bc 3b
       -0.026436085 0.050448634 0.03954226 0.005743563
000360 b3 4c 50 bb 74 1b 05 bd ae 7a 48 bd 26 47 b7 3c
       -0.0031783998 -0.032496884 -0.04894512 0.022372793
000370 37 1b 9e 3c 34 81 25 bc 35 9b b0 3c 8d 57 08 3d
       0.019300086 -0.010101605 0.021558383 0.03328662
000380 16 1e 44 3c 34 09 af 3b 59 a9 fe ba 9f 89 17 3d
       0.011970064 0.0053416733 -0.0019429132 0.03699648
000390 ce 9c c0 3c 80 98 37 3c 56 60 9a 3c c2 fb 67 bd
       0.02351227 0.011205792 0.018844765 -0.05663658
0003a0 5c 65 d6 bd 28 ac 8b 3d 04 8a 95 3d f7 ed 50 3d
       -0.104685515 0.068199456 0.07301715 0.05100819
0003b0 6b 29 10 3c 84 9c 71 3d ce ef 93 3b ee 1a a0 bd
       0.008798937 0.058987156 0.004514671 -0.078176364
0003c0 57 80 76 3c d0 96 ee bc 66 ab cf bd 08 0d 0a bd
       0.015045247 -0.029124647 -0.101401135 -0.033703834
0003d0 11 de 69 bb 3c aa 20 3d f8 fe 6f bd 58 af 1e bc
       -0.003568534 0.03922485 -0.058592767 -0.00968536
0003e0 42 1e 44 3d de 2c be bc b6 fc fe 3a a3 e2 15 3d
       0.04788042 -0.023214754 0.0019453976 0.03659309
0003f0 7a 59 14 bd f8 a5 26 bc 15 ff b4 3c b9 16 52 bd
       -0.036218144 -0.010171406 0.022094289 -0.0512912

blkresc.0.depthwconv.weight f4 [64, 64, 3, 3]
000000 5d 73 a8 bc c6 42 7c bd 37 fc ca 3c 52 c5 1f bd
       -0.020562822 -0.061587118 0.024778469 -0.03900654
000010 c1 d1 85 3d c2 09 06 3d b4 9f 16 3d 92 4e ad 3d
       0.06534148 0.03272415 0.0367734 0.08462252
000020 1f 89 a4 3d 87 7c d6 bb 74 8b 11 3c c7 d3 69 3c
       0.08033966 -0.0065456065 0.008883346 0.014271683
000030 95 2b d9 3b 25 6a 74 3c 89 5e eb 3c a8 4b 10 3c
       0.00662751 0.014917885 0.028731601 0.0088071
000040 db df 9d 3a 06 53 94 3c f1 2e 4e 3b d8 d9 72 3c
       0.0012044864 0.018105995 0.0031461085 0.014822446
000050 79 1d 1a bc ef 3e bc 3b 9b 63 b4 3b 09 3b da 3a
       -0.009406441 0.005744807 0.005505038 0.0016649674
000060 d4 f7 8d 3b 24 c8 c8 ba dd 98 0a 3a 5b 12 87 bc
       0.004332522 -0.0015318436 0.00052870606 -0.016488245
000070 48 5a cd bc 77 e6 59 bd 4a 36 a9 bc fc 56 e8 3b
       -0.025067464 -0.053198304 -0.02065577 0.0070904475
000080 19 7c 9d bd 2d 50 45 bd b0 88 40 bd fc fb c1 bd
       -0.076896854 -0.048172165 -0.047005355 -0.0947189
000090 15 0c 29 3c 20 2b 58 3b d9 ff bd bc 51 f2 02 be
       0.010317822 0.003298469 -0.023193287 -0.12787749
0000a0 eb bf 7c 3c 3b af d5 ba f3 78 5a 3d 78 0c dc bc
       0.015426616 -0.0016302833 0.053338002 -0.026861414
0000b0 83 e5 88 3c 2b 26 1a bc 51 a0 e8 bc 07 be ca bc
       0.016711002 -0.009408514 -0.028396757 -0.024748815
0000c0 dc fd e1 bb 15 50 6a 3c 27 af 23 ba e8 51 84 bd
       -0.0068967175 0.01430132 -0.0006244056 -0.06460935
0000d0 74 90 c5 3a b8 7f 25 bd e6 e5 18 bd ca b8 b0 3c
       0.0015072958 -0.040405005 -0.037328623 0.02157249
0000e0 50 3d 47 ba ea fb 94 bc f6 81 50 3c 8b 2d cb bc
       -0.0007600384 -0.018186528 0.012726298 -0.02480199
0000f0 e3 d9 a0 3c 06 ea ae 3c d7 f9 7e bc 70 ad 94 bc
       0.019635146 0.021351825 -0.015562496 -0.018149108
000100 7f ee d8 3c 45 75 5e bc 08 cd 94 bc 5e 05 06 3d
       0.026480911 -0.013577764 -0.018164173 0.032719962
000110 18 74 7a bc fc 19 91 bc 03 1c 42 3d fb 1e 20 3c
       -0.015286468 -0.017712586 0.047389995 0.009773011
000120 41 04 40 bd b2 4f 0e bd de 5a 90 bd 71 8f 5e 3a
       -0.046879057 -0.034743972 -0.070485815 0.00084900024
000130 37 b6 d3 ba 25 07 a8 bc 58 fc 87 3d f7 69 4f bd
       -0.0016152327 -0.02051122 0.066399276 -0.050638165
000140 c9 f2 92 bd 0d 7e cb 3d 9f 42 61 3d 66 93 3b 3d
       -0.07175214 0.09936152 0.054995175 0.045794867
000150 c3 22 46 3c 99 9e a2 bc ee bb 8c bc a1 6b 88 bc
       0.012093249 -0.019851016 -0.017179456 -0.016652884
000160 e1 24 1a bd 21 1b 5b 3c 69 78 3f 3b 42 4b 15 3d
       -0.037632827 0.013373167 0.0029216057 0.036448725
000170 61 ce 0a 3d c1 5e 5a 3c fb 9a 0a 3c 01 46 ec 3a
       0.033888225 0.013328255 0.008459802 0.0018026234
000180 d8 cd 97 bc 6e 51 9c bc df b2 13 3d ed 55 03 bc
       -0.018530771 -0.019081797 0.036059257 -0.008016092
000190 04 fc bb bb 8c 9f 51 bd c3 e9 5f bd 21 4e ed bc
       -0.0057368297 -0.051177546 -0.054666292 -0.028967919
0001a0 d2 fa 0b bd 9b 37 92 bd 31 9e 6d bd 23 a4 83 bd
       -0.034174748 -0.07139512 -0.05801219 -0.06427791
0001b0 53 55 94 bd 39 1f b8 bd a6 b3 99 3c 85 f9 33 3d
       -0.07242837 -0.0899033 0.01876242 0.043939132
0001c0 a4 e5 15 3c 13 e2 e8 3c 47 70 84 3c 1d f1 0b 3d
       0.009148989 0.028428113 0.01616682 0.03416549
0001d0 16 ff 49 3c 60 4c 38 3d 8a c1 3c 3d ba 93 f4 bb
       0.012328884 0.044994712 0.04608301 -0.0074638994
0001e0 ff 8d d3 3c 7c 07 9a 3c 66 e0 7e 3b dd 78 6b bb
       0.025824545 0.018802397 0.0038891076 -0.0035930194
0001f0 0b 50 27 bd cc 10 6e bd b2 84 89 bd 5b 43 d3 bc
       -0.04084782 -0.058121487 -0.06714763 -0.025788954
000200 96 41 ba 3c 54 f3 a6 bc 53 5f a2 3c 54 26 6e 3d
       0.022736352 -0.0203797 0.019820845 0.05814202
000210 7e ea a6 bb 84 a6 67 3c 06 e1 df ba cd 87 87 3c
       -0.0050938716 0.0141388215 -0.0017080612 0.016544247
000220 aa ce 65 3c 98 89 58 3b 23 ec 94 bc 7a 73 06 bc
       0.014026323 0.0033040997 -0.018179005 -0.008206243
000230 a8 57 0f bd fa 35 28 bd 6c 04 8a bc 45 8a 1d bd
       -0.034995705 -0.0410671 -0.016847812 -0.038461942
000240 39 26 73 3d f0 d4 fd b9 95 0f 62 bb 69 50 35 3d
       0.059362624 -0.0004841457 -0.003449415 0.04426614
000250 7e b9 0f bd b6 61 04 bd 3d cc b2 bc 8c 17 4e bd
       -0.03508901 -0.032319747 -0.021825904 -0.050315425
000260 a6 9f 91 bd b6 9c 20 3d fd 5a b0 3c db 2c 15 3d
       -0.07110529 0.03921195 0.021527762 0.03641973
000270 ec f9 fc bc 19 8b b5 bb 93 74 64 3c fd 2d 95 bc
       -0.03088089 -0.0055402634 0.013943809 -0.018210405
000280 e3 dd 31 bd 5d d4 28 3b d3 d0 68 3d 8f bd d3 3c
       -0.0434245 0.0025761344 0.056839775 0.025847225
000290 fe 10 6d 3d 94 09 8e 3b e7 d7 12 3c d2 5e 20 3d
       0.057877533 0.004334638 0.008962608 0.039152928
0002a0 47 df 12 3d ba df 00 3d cd 01 39 3d a1 de ed bc
       0.035857465 0.031463362 0.045167733 -0.029036822
0002b0 85 60 04 3c f5 59 95 3c a1 62 cb 3c 1c 23 35 3c
       0.008079653 0.018231371 0.024827303 0.011055734
0002c0 b1 22 cc 3c 67 04 b6 3c b3 d6 c5 3d 47 ef bd 3a
       0.024918886 0.022218896 0.09660091 0.0014490866
0002d0 d0 ad 6a 3c 2c b2 f3 3c 0d 36 2a bd e8 ef 0c bd
       0.014323667 0.029748045 -0.041555453 -0.03440848
0002e0 1c d7 17 bd 88 4c bb bd d9 e7 b3 bc b0 7f 06 bd
       -0.03707038 -0.091454566 -0.02196114 -0.032836616
0002f0 68 e5 21 bd 59 2c c2 bb 87 00 cf bb 09 46 c0 3b
       -0.03952542 -0.005925697 -0.0063172015 0.005867724
000300 bd 7f dc 3b 5e 8a 38 bc 24 e8 c9 bc 53 58 27 3d
       0.006729095 -0.011263458 -0.024646826 0.040855717
000310 c7 dd 8f 3b b2 02 b2 bc fd 1e 54 bc 08 59 df bb
       0.0043904516 -0.0217298 -0.012946841 -0.0068160333
000320 50 57 54 3d bd c9 b7 3b cf 09 9b 3c 9c ff 55 3d
       0.05184108 0.005608766 0.018925576 0.05224572
000330 ba 68 06 3d 78 34 ea bb 19 26 79 3d a8 5a 9d 3c
       0.03281472 -0.007147368 0.06082735 0.019208267
000340 64 af 35 bd 3f 41 8b b9 48 4f 0c 3c 3c 55 5b bd
       -0.04435672 -0.00026560758 0.008563824 -0.053548083
000350 b6 99 75 bc 9b 41 a0 bc dd f9 8d bd a8 47 ab bc
       -0.014990261 -0.019562533 -0.06932423 -0.020908192
000360 bd 99 19 bd 9a 0d 5a bc 5b 5d d6 bb e2 26 42 bc
       -0.037500132 -0.013308907 -0.0065418906 -0.011850091
000370 7c ab b3 3c a7 e3 ba 3c 54 18 1c 3d f1 e2 16 3d
       0.021932356 0.022813631 0.03810914 0.036837522
000380 e1 a7 06 3b c6 6a bf 3d 0b 15 1d 3d 64 05 9f 3c
       0.002054684 0.09346537 0.038350146 0.01941175
000390 97 dc 0c bc 36 72 82 bc 55 dc 69 bc bb f5 0d bc
       -0.008597515 -0.0159236 -0.014273723 -0.008664544
0003a0 60 f4 cd bc e5 56 68 3c 0e 6b b4 bc 8e a3 97 3b
       -0.025140941 0.0141808735 -0.022023704 0.0046276515
0003b0 10 af 5c 3d c3 d4 12 bd 83 06 b6 3b 2a b4 2d 3d
       0.05387789 -0.035847437 0.0055549755 0.042408146
0003c0 c6 91 20 bd 04 d3 85 3c 20 45 b6 3c 8e 24 03 3d
       -0.03920152 0.016335972 0.022249758 0.032017283
0003d0 88 58 fb 3b e2 4c 96 3c 37 41 22 bc 01 c3 fd 3c
       0.007670466 0.018347207 -0.009903244 0.030976774
0003e0 8d 47 c4 3c 91 76 e5 bb be 6e a8 3b 97 3f 33 3d
       0.0239599 -0.0070026596 0.0051401546 0.043761816
0003f0 34 91 6a 3d 58 ed 58 3d f6 25 18 bc 55 93 53 3d
       0.057267383 0.052960724 -0.009286394 0.05165418

lastresc.weight f4 [1, 64, 3, 3]
000000 80 8b 22 bd 03 8b 76 3d c9 46 64 3d c7 9c 23 3e
       -0.03968382 0.060191166 0.05573157 0.15977775
000010 a8 7e 2e 3e a4 f9 d2 3d aa 2a 37 3e d4 8c 12 3f
       0.17040503 0.103015214 0.17887369 0.57246137
000020 8e 55 21 3c 86 c2 cd 3c f1 df 99 3c 46 66 93 be
       0.009847058 0.02511717 0.018783541 -0.28788966
000030 88 36 d5 3d fe fb 03 3e 6d 3d 8b be fd 75 88 bf
       0.10410792 0.12889096 -0.27195302 -1.0661007
000040 d9 30 15 be f2 e0 4a be 5a bc 8e 3e a2 2a bb be
       -0.14569415 -0.19812372 0.27878076 -0.36555964
000050 c1 03 ba be 06 81 ce 3e 23 8c 3d be e7 ae af be
       -0.3633099 0.40332812 -0.18510489 -0.34313127
000060 e0 58 9f 3e ec 8d e8 bd ed b1 26 bf d2 cd d7 bd
       0.31122494 -0.113551944 -0.65115243 -0.10537304
000070 f9 37 f7 be 6e c9 ff 3d 89 a9 59 be 4e 74 96 be
       -0.4828489 0.124895915 -0.21256079 -0.29385608
000080 bb 61 f6 3d 34 9b ca be 07 9e cc 3d af 84 03 bf
       0.12030359 -0.39571536 0.09991079 -0.51374334
000090 f0 71 67 3e 44 b9 1e 3d 77 fb 09 bf 83 55 d0 3c
       0.22602057 0.0387509 -0.5389933 0.0254314
0000a0 db 98 0b bf ed b4 9e 3d 86 e2 5d 3e c9 22 8c 3e
       -0.54530114 0.077493526 0.21668443 0.2737029
0000b0 92 ee 71 3e 32 7f 9b 3d e9 61 56 3e fd a3 9e be
       0.23626164 0.0759262 0.20935787 -0.30984488
0000c0 b7 b5 5f 3e c9 8d 08 3e 2c 46 42 be f9 83 e4 be
       0.21846662 0.13335337 -0.18972081 -0.44631937
0000d0 d7 f4 c8 bd 52 34 58 3c c0 ae c0 3e 08 8e 12 be
       -0.098123245 0.013196068 0.37633324 -0.14311993
0000e0 c8 46 36 bf 4f 2d df bd 7d 81 11 be b9 0a 6e 3e
       -0.71201754 -0.10897314 -0.14209552 0.23246278
0000f0 af 71 df 3e 73 6b e4 be a6 1a 60 3f fd 7c 58 3d
       0.4364142 -0.44613227 0.8754066 0.052853573
000100 50 4d f8 3e d6 b4 02 3e 60 06 34 3e 4e 9c ba bd
       0.48496485 0.12764296 0.17580557 -0.09111844
000110 7a d1 69 3e d1 c0 85 3e e6 10 f5 be e2 ff 2c be
       0.22833815 0.2612367 -0.47864455 -0.16894487
000120 9e 12 9a be 39 9d fb be 76 05 7b bd 2f 58 85 3c
       -0.3009233 -0.4914339 -0.061284505 0.0162774
000130 a5 88 3b 3f de 80 89 3e 1c 43 bf 3e 7a 0f eb be
       0.7325538 0.2685613 0.37355888 -0.45910245
000140 7d 9f 98 bd 6f 5f 03 3e 6c fd 00 bc 3a b4 f8 bb
       -0.07452295 0.12829374 -0.0078729205 -0.007589844
000150 05 ba db 3e a6 ea 43 bd dc c6 7e 3e d2 2c 08 3f
       0.4291536 -0.0478312 0.24880546 0.5319339
000160 f8 a3 8e be df 3d 2e 3e 50 0a cc 3d 69 25 b6 bd
       -0.27859473 0.1701579 0.099629045 -0.08893854
000170 2d 61 2f 3f 35 dd 6e 3e 4d 85 3c bd de 58 af bd
       0.68507653 0.23326571 -0.046025563 -0.08561872
000180 c5 cb dd be de 51 82 be 97 36 de 3e 05 6e 24 bf
       -0.43319526 -0.25453085 0.43401024 -0.64230376
000190 cd e9 da be 59 5a 34 bf 2f d2 5f 3e d9 a9 42 3d
       -0.427565 -0.7045036 0.21857522 0.04752526
0001a0 fd d9 6b be b9 f1 2f bf 7f e7 1b 3d e4 2d 6f 3e
       -0.23032375 -0.68728215 0.03806257 0.2335735
0001b0 5e 04 3e be 07 fc 0a bf 66 35 26 3f f0 c7 55 3e
       -0.18556353 -0.54290813 0.6492523 0.20877051
0001c0 d1 16 70 be 88 63 02 bd 16 c5 83 bd 00 a6 be 3d
       -0.23446204 -0.0318332 -0.064340755 0.09309006
0001d0 2e 85 cd bd d6 a5 dc 3e 62 81 db 3e 24 e9 da be
       -0.10035168 0.43095273 0.4287215 -0.42755997
0001e0 9b 7b d6 be 1b ea 27 3d c1 eb 99 3d a4 75 18 bd
       -0.41891178 0.040994745 0.075156696 -0.037221566
0001f0 90 6c 9b 3d d0 fa 6b be bf 01 03 bd 34 d0 04 bf
       0.07589066 -0.23044896 -0.031984087 -0.5188019
000200 62 76 39 3f d5 9a 83 3e 27 9e 20 3e 2d d1 29 be
       0.7244626 0.25704065 0.1568533 -0.165837
000210 f6 62 fc 3e e9 61 17 3f e3 9f 10 bf 33 c2 b7 3d
       0.4929425 0.59133774 -0.5649397 0.089725874
000220 11 15 57 3f 63 fb 30 3d 7f 80 2c 3e 14 e2 03 3e
       0.8401652 0.04320849 0.16845892 0.1287921
000230 d8 08 e4 be 57 0d d5 be c3 8d 89 be c9 7f 4d 3e
       -0.44537997 -0.4161174 -0.26865968 0.20068277
000240 ca 09 b2 3e a5 b5 0a 3e c3 a3 71 3e bc 1f f2 3e
       0.34773093 0.13545854 0.23597626 0.47289836
000250 5c 6c 8d be 1e 6f 12 be dc b4 6d be c1 cb 18 be
       -0.27621734 -0.143002 -0.23213524 -0.14921476
000260 2a b1 fd 3d ec 48 7c 3e f3 76 54 3e 25 1f a1 bd
       0.12387307 0.24637192 0.207485 -0.078672685
000270 07 15 4e be 95 89 99 3e 31 a1 02 bf 9f 4b 0d 3f
       -0.20125209 0.2998778 -0.5102721 0.55193514
000280 82 cd 9a be ea c4 ab 3e ea f7 df 3d ce a7 78 3e
       -0.30234915 0.3354867 0.10935958 0.24282762
000290 9f 6d 0f 3f 40 19 36 bf 60 67 06 3f e0 61 a7 be
       0.56026644 -0.7113228 0.5250149 -0.3269186
0002a0 18 2a 1b bf 2b 5f 77 bd ff df b8 be 26 a6 0c be
       -0.60611105 -0.060393494 -0.36108395 -0.13735256
0002b0 75 43 1f be 8f 85 8e 3e a0 f1 14 bd ea 27 ce be
       -0.15553077 0.27836272 -0.036363244 -0.40264827
0002c0 01 ea 04 3e 8d 2a 22 3e 82 c8 07 3e fd 00 05 3f
       0.1297989 0.15836544 0.13260081 0.51954633
0002d0 99 b1 49 3e 59 74 32 3f 20 69 98 bd cb 8b dd be
       0.19696654 0.6970878 -0.07441926 -0.43270716
0002e0 52 72 6e be 21 98 24 be ca 7e 22 3e 06 5a 66 be
       -0.23285797 -0.16073658 0.15868679 -0.22495279
0002f0 9a 54 c7 be 77 c6 60 be 5f f3 13 3e 2f 6c 8e 3e
       -0.38931733 -0.21950708 0.14448307 0.27816913
000300 49 2c 25 be a7 48 8a 3e dd e1 87 be 69 fa 9d 3e
       -0.16130175 0.27008554 -0.26539508 0.3085511
000310 eb 49 54 3e 02 76 02 3f 12 f6 e9 be 91 52 3c be
       0.20731322 0.50961316 -0.4569555 -0.18390872
000320 1a 96 eb 3e e3 0d 34 bf 77 55 a1 3e a2 84 99 be
       0.46012956 -0.7033369 0.31510517 -0.29984003
000330 48 b6 c9 bd 11 ba b3 3e cb 80 c0 be ad 6e 95 3e
       -0.098492205 0.35102895 -0.3759826 0.29186
000340 8d 3c 24 bf 00 5f 2d bf 8e 04 35 bd 00 b7 d0 be
       -0.64154893 -0.67723083 -0.044193797 -0.40764618
000350 92 05 59 3e ec 66 ce 3d e6 52 7c bd 43 23 ba 3e
       0.21193531 0.100782245 -0.061602496 0.36355028
000360 c2 d4 51 be 94 96 d7 bb 6c e6 ed be 46 c1 16 bf
       -0.20491317 -0.0065792296 -0.4646486 -0.5888866
000370 2d 2d c0 3e ff b3 a4 3e 4e 34 28 bf bc 27 b8 bd
       0.37534466 0.32168576 -0.6570481 -0.08991954
000380 c9 aa 03 3f 3d d7 87 be f6 e3 29 bf e1 ca 1b 3e
       0.5143247 -0.265314 -0.66363466 0.15214111
000390 ef d2 c9 be 3f db 89 be 39 44 2d 3f 6f f2 e3 bd
       -0.39418742 -0.26925084 0.67682225 -0.11130225
0003a0 b9 f6 90 3e 28 c3 61 be fd 5f a2 be ee 42 89 3d
       0.28313234 -0.22047102 -0.31713858 0.06702219
0003b0 67 0f a1 be 58 8d ae 3d d3 54 ad be 9f d8 63 be
       -0.31457064 0.08523053 -0.33853778 -0.22250603
0003c0 87 fa 9b bc a5 ff 55 3d 8a 96 bf be cf 4f 21 be
       -0.01904036 0.052245755 -0.3741954 -0.15753101
0003d0 8d 7f de 3d 72 04 40 be f0 77 d5 3e 49 68 73 3e
       0.10864172 -0.18751696 0.41693068 0.2377025
0003e0 83 e3 dd be a4 70 87 3e 81 1f f3 3c 7b 54 97 be
       -0.4333764 0.26453125 0.029678108 -0.2955664
0003f0 60 a7 7e bd f5 d7 c7 ba 67 36 e5 3d 72 f9 cd 3e
       -0.06217134 -0.0015246855 0.11192017 0.40229374
