CSNet96_10.pt (torch_old, 988923 bytes, 5 tensors)

cssample.weight f4 [102, 1, 32, 32]
-0.02135206 -0.019501748 -0.010314158 0.010319927 0.026275989 0.03295066 0.02314366 0.011323044
-0.0007249975 -0.013038636 -0.021263435 -0.016306533 -0.0006573918 0.0137268035 0.024943044 0.03138207
0.023068639 0.023189593 0.03400645 0.043878257 0.031826302 0.00507318 -0.014393618 -0.020642884
-0.018101294 -0.0068988423 -0.004317383 -0.0035406323 -0.009830318 -0.00738885 -0.008431384 -0.0037986713
-0.022967584 -0.02125611 -0.0150440475 0.0029568283 0.022273794 0.03279885 0.025536165 0.018437492
0.003931049 -0.011892331 -0.021894243 -0.015846327 -0.004118062 0.012833972 0.027014129 0.032387074
0.025149977 0.022353753 0.030868106 0.042921115 0.032715827 0.007841993 -0.012614459 -0.022013504
-0.016709846 -0.010781978 -0.0031934606 -0.0011127512 -0.004774802 -0.006008245 -0.00679824 -0.0037967039
-0.02459968 -0.020891054 -0.017460257 0.0028284192 0.021707792 0.028205708 0.026947876 0.021775385
0.0050841873 -0.0057474696 -0.020589184 -0.014100424 -0.0011599254 0.016439065 0.020039408 0.020478616
0.008824502 -0.0004133707 0.011814997 0.028323328 0.019503929 0.00079589227 -0.026541464 -0.02602263
-0.017884167 -0.0023730367 0.0050570522 0.006595213 0.005084963 -0.00048736876 -0.0019690061 -0.0041079544
-0.007064943 -0.0076394654 -0.0073493617 0.0046170745 0.013393369 0.017149571 0.015189644 0.010723505
0.007495087 -0.0050024525 -0.014855121 -0.009675446 0.0009934219 0.005383889 0.006995872 -0.0061714333
-0.02248693 -0.031760793 -0.022955317 -0.0011922626 -0.0022166509 -0.017339017 -0.03115507 -0.028004315
-0.01578707 -0.00093972543 0.008877101 0.0146368705 0.010558889 0.0074304617 0.0014782324 -0.0034583756
0.012956124 0.011555274 0.01125509 0.008501058 0.009793474 0.006017731 -0.0015809742 -0.00167786
0.00072482426 -0.008104033 -0.014111682 -0.010994386 -0.0019950955 -0.0017610489 -0.005724464 -0.016170682
-0.030076329 -0.043200955 -0.030339774 -0.011170415 -0.0073007727 -0.019658692 -0.031097976 -0.030915916
-0.01707656 -0.0031898152 0.010895168 0.013653646 0.015549034 0.010405209 0.0012732013 -0.003912549
0.029085863 0.026816852 0.026214315 0.01670753 0.010936505 -0.0040336745 -0.0112298215 -0.00884025
-0.0059841257 -0.007436928 -0.012737337 -0.0073871715 -0.0018765903 -0.0038091063 -0.008863727 -0.011982358
-0.020497557 -0.02559756 -0.016100273 -0.00074307 0.0045145075 -0.008498288 -0.02703866 -0.032963865
-0.020284023 -0.009292408 0.006194486 0.01530849 0.019146211 0.005520737 -0.0072572986 -0.0075774663
0.030720534 0.028040837 0.029122347 0.019653594 0.010472881 0.0014419279 -0.010413704 -0.009928643
0.002670438 -0.0014045899 -0.0039563407 0.0007168707 0.0043873615 0.00021782538 -0.0053973556 -0.0064621517
-0.011703432 -0.014172781 -0.009142949 0.008748927 0.014862563 -0.0015117092 -0.025976637 -0.03895278
-0.03425082 -0.016594205 -0.00028887406 0.009849006 0.0048627984 -0.007699507 -0.024124116 -0.027380168
0.018499814 0.022581406 0.018449346 0.013250164 0.01032334 -0.0004185453 -0.0058231284 -0.0037204803
0.0034435366 0.0048927707 0.0053363135 0.009147072 0.014535306 0.008135493 0.0030878172 0.0018214226
-0.001529613 -0.0073886663 -0.004362505 0.013121848 0.027742695 0.017692903 -0.013929351 -0.035725422
-0.034317557 -0.021750432 -0.0066164182 -0.0010489194 -0.006235874 -0.029342305 -0.043977574 -0.050786357
00000000: 84ea aebc 21c2 9fbc b7fc 28bc e914 293c
00000010: be40 d73c 45f7 063d c697 bd3c 4a84 393c
00000020: c20d 3eba 01a0 55bc a830 aebc 4795 85bc
00000030: d154 2cba 63e6 603c 5b55 cc3c 7c8a 003d
00000040: 71fa bc3c 1af8 bd3c 594a 0b3d b0b9 333d
00000050: 4c5c 023d eb3c a63b 36d3 6bbc 441b a9bc
00000060: 2a49 94bc af0f e2bb d578 8dbb f409 68bb
00000070: 580f 21bc 2b1e f2bb ca23 0abc 21f3 78bb
00000080: 8426 bcbc 4b21 aebc 4f7b 76bc 59c7 413b
00000090: 8877 b63c 1658 063d 3831 d13c 390a 973c
000000a0: 07d0 803b 0dd8 42bc 8e5b b3bc 28d0 81bc
000000b0: cff0 86bb 9545 523c bc4c dd3c 4fa8 043d
000000c0: 5307 ce3c 381f b73c 1cdf fc3c 0dce 2f3d
000000d0: 0801 063d b47b 003c e0ac 4ebc aa55 b4bc
000000e0: 16e3 88bc e5a6 30bc 6149 51bb bcd9 91ba
000000f0: f175 9cbb d0e0 c4bb c5c3 debb 1fd2 78bb
00000100: 4585 c9bc b723 abbc d008 8fbc 005d 393b
00000110: 8ad4 b13c a80f e73c cbc1 dc3c 4b62 b23c
00000120: 4199 a63b 4555 bcbb a6aa a8bc 7705 67bc
00000130: a308 98ba 38ab 863c af29 a43c c5c2 a73c
00000140: a594 103c adb9 d8b9 b093 413c 5306 e83c
00000150: b4c6 9f3c 6da3 503a 7c6d d9bc 692d d5bc
00000160: d181 92bc f384 1bbb a1b5 a53b a81c d83b
00000170: c39f a63b 8785 ffb9 710a 01bb 059c 86bb
00000180: 0a81 e7bb 7b54 fabb ead2 f0bb d44a 973b
00000190: dc6f 5b3c 427d 8c3c fcdd 783c a4b1 2f3c
000001a0: 5999 f53b 9deb a3bb e562 73bc c385 1ebc
000001b0: b535 823a 566b b03b a13d e53b bc39 cabb
000001c0: 8336 b8bc 9b17 02bd ca0c bcbc b245 9cba
000001d0: 3b45 11bb 8e0a 8ebc eb38 ffbc 4e69 e5bc
000001e0: e353 81bc e857 76ba 4371 113c 7ccf 6f3c
000001f0: 31ff 2c3c 3b7b f33b 40c1 c13a eaa5 62bb
00000200: ec45 543c 5552 3d3c 4567 383c 0648 0b3c
00000210: cf74 203c 6330 c53b b138 cfba a4eb dbba
00000220: 2202 3e3a c7c6 04bc af34 67bc cc21 34bc
00000230: 26c0 02bb ffd2 e6ba 4994 bbbb 6178 84bc
00000240: a262 f6bc 7cf3 30bd 1e8b f8bc 1e04 37bc
00000250: 523b efbb 440b a1bc 2fc1 febc 6043 fdbc
00000260: 24e4 8bbc 380c 51bb a681 323c 8bb3 5f3c
00000270: 60c1 7e3c 9c7a 2a3c 8ce1 a63a d734 80bb
00000280: 7a45 ee3c 04af db3c 67bf d63c 3bde 883c
00000290: 072f 333c ea2c 84bb 49fd 37bc b2d6 10bc
000002a0: 7c16 c4bb 79b1 f3bb 43b0 50bc 1610 f2bb
000002b0: ecf7 f5ba 33a2 79bb 2a39 11bc a751 44bc
000002c0: 7eea a7bc f9b1 d1bc b8e4 83bc 95ca 42ba
000002d0: 6fee 933b 673c 0bbc 2e80 ddbc 1e05 07bd
000002e0: ae2a a6bc 2f3f 18bc 1dfb ca3b 76d0 7a3c
000002f0: 84d8 9c3c 4ce7 b43b a2ce edbb 654c f8bb
00000300: a1a9 fb3c e6b5 e53c fd91 ee3c 9300 a13c
00000310: 7296 2b3c 12ff bc3a 3e9e 2abc bfab 22bc
00000320: 8402 2f3b 371a b8ba 31a4 81bb 61ec 3b3a
00000330: dbc3 8f3b 0e68 6439 4ddc b0bb 75c0 d3bb
00000340: c0bf 3fbc f434 68bc 4fcc 15bc a957 0f3c
00000350: 1c82 733c 8b24 c6ba f5cc d4bc f38c 1fbd
00000360: 964a 0cbd 92f0 87bc 0574 97b9 ba5d 213c
00000370: 1c58 9f3b 254c fcbb f09f c5bc 604c e0bc
00000380: ec8c 973c a4fc b83c 1523 973c 3717 593c
00000390: 3a23 293c 3370 dbb9 f1cf bebb 4dd3 73bb
000003a0: f5ac 613b 8953 a03b 3edc ae3b 9add 153c
000003b0: 7e25 6e3c bb4a 053c fa5c 4a3b cdbc ee3a
000003c0: 4c7d c8ba a01c f2bb 58f3 8ebb 05fd 563c
000003d0: a644 e33c b5f0 903c ef37 64bc d254 12bd
000003e0: 9190 0cbd f62d b2bc 8ace d8bb e57b 89ba
000003f0: 4d56 ccbb 465f f0bc d421 34bd 5b05 50bd

initresc.weight f4 [1024, 102, 1, 1]
-0.02364968 -0.025634471 -0.003449316 -0.0031633982 -0.017379405 0.021888496 -0.0072798803 0.021401733
-0.0052175904 -0.009515742 -0.003302819 0.028997337 0.0044656685 0.05278888 0.017843403 0.011477729
-0.004548584 0.010691141 0.016551157 -0.030738046 0.00715308 -0.03194319 -0.0048101707 -0.018937785
-0.0024272692 0.028647706 0.012258553 -0.029539684 0.027419277 -0.015420851 -0.0385022 0.009730933
-0.0072115893 -0.0159208 -0.03321249 0.008487925 -0.01623716 0.029723126 -0.013080533 0.05302389
0.038199488 0.0003486239 0.017270833 -0.007075843 -0.023612585 -0.030510731 -0.014377341 -0.036015935
0.020556066 -0.007909545 0.002303623 0.014315939 -0.034721203 0.006610738 0.009308401 0.02080602
-0.005667335 -0.03251092 -0.0045589395 -0.01581407 0.018311089 0.0034062685 0.0061382833 -0.0034388648
-0.017470617 -0.0059178616 0.0034139417 -0.014668758 -0.0031309205 -0.028767934 0.0010411327 0.029021021
-0.018222716 -0.022954552 0.010705335 -0.0044952 -0.033090778 0.014720756 0.03081131 0.024269506
-0.038919136 -0.055254944 0.008961606 -0.021410767 0.0036704931 -0.022909397 -0.018219413 -0.012857056
0.036950253 -0.026903259 -0.009053 0.007198268 0.00781852 0.011386769 0.009921499 0.02463543
0.0028640514 0.022588339 -0.0012843993 0.019143203 0.0036577666 0.027322058 -0.0032541184 -0.011793875
0.005412319 -0.010002991 -0.0077423253 0.017225724 -0.0019945288 0.0068409117 -0.0014800412 -0.005047137
0.000562973 0.013528336 0.0010231195 0.02165894 0.011142403 0.012682617 0.003936789 0.010378077
0.014531928 -0.014131453 -0.00014726503 -0.016070727 0.003369243 -0.0076843114 -0.0014934678 0.017080411
0.004934001 -0.020591972 0.011972379 -0.0068480154 -0.02463078 -0.0026495764 -0.00405269 -0.008275523
-0.03149391 0.0039785057 -0.013422538 0.011090059 4.9602673e-05 0.05308187 0.022399971 0.007993239
0.0081711635 -0.0057436177 -0.006544208 -0.007291538 -0.0053368197 -0.018480215 0.010243994 -0.0010565057
0.002359821 0.0020031794 -0.020435007 0.005550509 0.0043761907 0.008860807 -0.0037846484 -0.017679049
0.0008669725 -0.0009699612 0.00636185 -0.0034561085 -0.0006422612 -0.0029083374 -0.0042790305 -0.006579367
0.0061045857 -0.011454398 0.0015203813 -0.008820409 -0.005692376 0.008588887 -0.00585104 -0.006410968
0.008113995 -0.0005949446 -0.0077039846 0.0155318575 0.011381731 0.012693848 -0.0139743965 -0.025818178
0.0018031398 -0.0059248237 0.00412361 -0.0054566483 -0.00753261 -0.014868052 0.019910702 -0.0155351125
-0.0047136974 -0.0004839089 0.0038663256 0.004007757 0.0043111024 0.013508376 0.0017037748 0.012848526
-0.00173801 0.009280831 -0.0049060383 0.010331193 -0.013858167 -0.017520433 0.008072155 -0.011994399
-0.011235274 0.020428896 0.0007274268 0.0072026122 0.0011120839 -0.012450703 0.010907672 0.016330795
-0.0020754714 0.035449408 0.012611667 0.010939757 0.010483608 0.008841329 0.029073782 -0.015018294
-7.178814e-05 -0.025557803 0.0068610567 -0.0114033 -0.00414061 0.02945254 0.008581732 -0.019525018
0.019610183 -0.013845771 -0.03330565 0.002682034 -0.006830892 -0.00926662 -0.03182039 0.0043890495
-0.014956063 0.012461724 -0.0071567674 0.05055717 0.02585496 0.0073714852 0.018705463 -0.002731163
-0.0125654545 -0.019072894 -0.009542505 -0.020468198 0.014084915 0.00059491384 0.0073833796 0.009317331
00000000: f9bc c1bc 62ff d1bc eb0d 62bb 0451 4fbb
00000010: 415f 8ebc 814f b33c 108c eebb b052 af3c
00000020: 52f8 aabb eae7 1bbc 1c74 58bb d38b ed3c
00000030: be54 923b 2739 583d 542c 923c 160d 3c3c
00000040: 4a0c 95bb e529 2f3c 4b96 873c 5bce fbbc
00000050: 6264 ea3b ddd6 02bd a39e 9dbb 6a23 9bbc
00000060: d212 1fbb 98ae ea3c 19d8 483c 35fd f1bc
00000070: 649e e03c bda7 7cbc 7cb4 1dbd 7e6e 1f3c
00000080: 324f ecbb 566c 82bc d209 08bd f010 0b3c
00000090: cb03 85bc ea7d f33c bb4f 56bc 942f 593d
000000a0: 1177 1c3d 82c7 b639 907b 8d3c 79dc e7bb
000000b0: 2e6f c1bc a4f1 f9bc f08e 6bbc 7285 13bd
000000c0: 3265 a83c 0997 01bc 61f8 163b 668d 6a3c
000000d0: d237 0ebd e49e d83b 4382 183c 6371 aa3c
000000e0: 0db5 b9bb 2c2a 05bd 2863 95bb 828c 81bc
000000f0: 2301 963c b43b 5f3b a723 c93b 945e 61bb
00000100: 8a1e 8fbc 9fea c1bb 70bc 5f3b 3b55 70bc
00000110: 2130 4dbb bbaa ebbc 9e76 883a 7ebd ed3c
00000120: ce47 95bc 2f0b bcbc 6e65 2f3c 784c 93bb
00000130: 328a 07bd 532f 713c 0068 fc3c d8d0 c63c
00000140: ac69 1fbd 0253 62bd b3d3 123c a265 afbc
00000150: a88c 703b 7dac bbbc e140 95bc 67a6 52bc
00000160: 2659 173d 3964 dcbc 0953 14bc 73df eb3b
00000170: 4019 003c 928f 3a3c c88d 223c 3ed0 c93c
00000180: cfb2 3b3b 2e0b b93c 4a59 a8ba 35d2 9c3c
00000190: 24b7 6f3b 82d2 df3c 0c43 55bb 193b 41bc
000001a0: d359 b13b 96e3 23bc 55b3 fdbb f61c 8d3c
000001b0: a4b6 02bb ba29 e03b f1fd c1ba 7462 a5bb
000001c0: 7a94 133a f4a5 5d3c 321a 863a 176e b13c
000001d0: a08e 363c c0ca 4f3c 2e00 813b cf08 2a3c
000001e0: 5317 6e3c 9c87 67bc 286b 1ab9 c2a6 83bc
000001f0: 84ce 5c3b adcc fbbb 77c0 c3ba 38ec 8b3c
00000200: 66ad a13b 7fb0 a8bc cc27 443c 5165 e0bb
00000210: 7dc6 c9bc 84a4 2dbb 6ecc 84bb 0f96 07bc
00000220: c2ff 00bd 205e 823b 34ea 5bbc 14b3 353c
00000230: 770c 5038 606c 593d 2580 b73c 13f6 023c
00000240: 58e0 053c f534 bcbb cc70 d6bb dbed eebb
00000250: 7de0 aebb d263 97bc 6dd6 273c 737a 8aba
00000260: 3aa7 1a3b c647 033b 5167 a7bc 0be1 b53b
00000270: 2666 8f3b eb2c 113c dd07 78bb a7d3 90bc
00000280: 8a45 633a ff44 7eba 1177 d03b e17f 62bb
00000290: 6b5d 28ba ce99 3ebb 1c37 8cbb bb97 d7bb
000002a0: fa08 c83b 3aab 3bbc 8847 c73a 7a83 10bc
000002b0: 1c87 babb 67b8 0c3c 15ba bfbb 1913 d2bb
000002c0: 90f0 043c 0ef6 1bba b571 fcbb 5579 7e3c
000002d0: 717a 3a3c dcf9 4f3c def4 64bc a580 d3bc
000002e0: 5557 ec3a 0625 c2bb 591f 873b afcd b2bb
000002f0: 1dd4 f6bb 2199 73bc c51b a33c fc86 7ebc
00000300: 5c75 9abb 27b5 fdb9 2e62 7d3b 8153 833b
00000310: 2644 8d3b 3c52 5d3c 3251 df3a a082 523c
00000320: f0cd e3ba a00e 183c d5c2 a0bb 2a44 293c
00000330: 5e0d 63bc 0387 8fbc 1241 043c 2884 44bc
00000340: 2814 38bc 805a a73c c9b0 3e3a e403 ec3b
00000350: 58c3 913a 09fe 4bbc 18b6 323c 29c8 853c
00000360: a204 08bb 6633 113d 2aa1 4e3c ab3c 333c
00000370: 70c3 2b3c 39db 103c 242c ee3c 4a0f 76bc
00000380: f78c 96b8 995e d1bc b7d2 e03b e8d4 3abc
00000390: f4ad 87bb 7446 f13c 659a 0c3c eef2 9fbc
000003a0: 89a5 a03c 5fd9 62bc 816b 08bd 10c5 2f3b
000003b0: add5 dfbb 05d3 17bc 1956 02bd 04d2 8f3b
000003c0: 460a 75bc 422c 4c3c 5183 eabb 0915 4f3d
000003d0: c8cd d33c 808c f13b 333c 993c 50fd 32bb
000003e0: 56df 4dbc c23e 9cbc 2b58 1cbc ecac a7bc
000003f0: 6ac4 663c fef3 1b3a 47f0 f13b b8a7 183c

firstresc.weight f4 [64, 1, 3, 3]
0.030210273 0.09977143 0.13049848 0.029809192 0.009166625 -0.040148914 -0.06016149 -0.09505168
-0.10388291 -0.06396446 -0.10938161 -0.0640406 -0.047449637 0.031323455 0.04148579 0.023222344
0.094480686 0.096789524 -0.2040565 0.014979318 0.12995985 -0.19789957 -0.009946573 0.18260211
-0.1381304 0.06357084 0.1541492 0.04944558 0.07259087 0.14954834 -0.0805061 -0.026009414
0.062025834 -0.084017664 -0.13691272 0.015523497 -0.1989288 -0.16506092 -0.09568535 -0.015239397
0.05673276 0.04597921 0.08264902 0.18932424 0.09978296 -0.020063331 -0.01761912 -0.045355946
0.04431095 -0.04022984 0.050575472 -0.0252116 0.14194065 -0.07372517 0.103485934 -0.061940543
-0.18270744 0.2077473 0.04613081 -0.15146217 0.1453465 0.03297735 -0.13931799 0.054352235
-0.039801486 -0.07346191 -0.06741261 -0.028156456 -0.08221934 0.17471018 -0.0047581494 0.07224464
0.086089775 -0.05698617 0.12027169 -0.07783576 -0.18515083 0.16470617 0.009357867 -0.07306676
0.006086745 -0.117534235 -0.021312775 0.023779027 -0.114785835 -0.10417451 0.09081939 0.08084673
0.05469743 0.091943964 -0.028305003 -0.18692578 -0.10919672 0.08108838 -0.016709182 -0.053760815
0.13061617 0.10693783 0.074078664 0.095841885 -0.086295515 0.06778038 -0.03302694 0.16503969
-0.025480479 -0.052776996 -0.05070199 -0.08310441 -0.08789483 0.057424247 0.13333257 -0.14945464
-0.010799585 0.14789645 -0.15957388 -0.040781774 0.0903317 -0.028868197 -0.03005757 0.111648105
0.033374023 0.17046246 -0.13189293 -0.0034483138 -0.18029198 0.05880909 -0.008048844 0.04923516
0.21825261 -0.018506333 0.10839366 -0.02245678 -0.26214376 -0.011534907 -0.05923461 0.13810025
0.07091096 -0.031323265 0.16455224 0.05382258 -0.15866907 0.059074987 -0.08293085 -0.21716133
0.033096325 0.026029106 0.04549173 0.006418737 -0.010836434 0.02093979 0.045087714 0.019793307
0.042497557 0.067891456 0.029354492 -0.098866984 0.0905796 -0.002968408 -0.121047966 0.11399935
0.018305404 -0.10034024 -0.07582705 -0.084873185 -0.021165535 -0.008405362 -0.023323521 -0.025476169
0.089049496 0.11735077 0.023853835 -0.22336291 -0.21075913 -0.16673012 -0.00047473694 0.0114186825
-6.332766e-05 0.2390781 0.21547498 0.13179742 0.106812716 0.1441591 0.02616676 0.066398434
0.053446945 -0.06613276 -0.09586244 -0.1262984 -0.11219524 0.13346732 0.027752632 -0.011492677
0.08091533 -0.077521235 -0.12954763 0.06467897 -0.013358477 -0.049802877 0.03478591 -0.027636487
-0.08512696 -0.044214994 0.09244449 -0.0104103545 0.019736167 0.05227926 -0.023865292 0.011954229
-0.030200323 -0.020376999 -0.005181558 -0.16886167 0.032546956 -0.0124752745 0.071128994 0.12258778
-0.036763363 -0.007516741 -0.00089244236 0.039023723 -0.0076362933 -0.043651443 0.044099066 0.055733453
0.0066769524 -0.008730778 -0.030450538 0.027352128 -0.057841733 0.16666207 -0.043053064 -0.021612365
-0.123734996 0.08623578 0.11088308 -0.0044409935 0.029420882 0.04422051 -0.043218166 -0.04952416
0.022573467 -0.050022226 -0.027990477 0.09724641 -0.040228624 0.1025434 -0.0064022723 -0.2193509
0.016484603 0.038254235 -0.038135443 0.039325424 -0.03339885 -0.06431437 0.02642474 -0.05333971
00000000: 897b f73c f754 cc3d 65a1 053e 6832 f43c
00000010: 9d2f 163c 3073 24bd e56b 76bd 75aa c2bd
00000020: 90c0 d4bd ccff 82bd 7703 e0bd b827 83bd
00000030: 8d5a 42bd 064d 003d 01ed 293d c93c be3c
00000040: 177f c13d 9639 c63d 30f4 50be d06b 753c
00000050: 3214 053e 2fa6 4abe f3f6 22bc 0cfc 3a3e
00000060: 0e72 0dbe 6e31 823d 4ad9 1d3e 7387 4a3d
00000070: 86aa 943d 3323 193e 62e0 a4bd b211 d5bc
00000080: cd0e 7e3d 7411 acbd d932 0cbe 4456 7e3c
00000090: feb3 4bbe bb05 29be aef6 c3bd aaae 79bc
000000a0: 9c60 683d b254 3c3d e443 a93d 37de 413e
000000b0: 025b cc3d db5b a4bc f955 90bc 28c7 39bd
000000c0: 667f 353d 0bc8 24bd 3a28 4f3d 8f88 cebc
000000d0: e458 113e 39fd 96bd 6ff0 d33d 5eb5 7dbd
000000e0: a917 3bbe b5bb 543e a9f3 3c3d e618 1bbe
000000f0: b7d5 143e 4213 073d 60a9 0ebe 73a0 5e3d
00000100: e206 23bd 3373 96bd 9f0f 8abd 5ea8 e6bc
00000110: 9d62 a8bd 3ae7 323e 40ea 9bbb fff4 933d
00000120: d64f b03d 556a 69bd 0151 f63d 5b68 9fbd
00000130: 2e98 3dbe bca8 283e bd51 193c 07a4 95bd
00000140: 5173 c73b cab5 f0bd 2198 aebc 3ccc c23c
00000150: d614 ebbd 7259 d5bd 84ff b93d f892 a53d
00000160: 6a0a 603d 1e4d bc3d e5df e7bc 7969 3fbe
00000170: 88a2 dfbd aa11 a63d b2e1 88bc 4d34 5cbd
00000180: 3fc0 053e 3902 db3d 8eb6 973d c048 c43d
00000190: b4bb b0bd 71d0 8a3d 4247 07bd 2a00 293e
000001a0: 70bc d0bc b12c 58bd e4ac 4fbd a532 aabd
000001b0: 3402 b4bd b035 6b3d 5588 083e a30a 19be
000001c0: bef0 30bc 2b72 173e 5667 23be ca0a 27bd
000001d0: d4ff b83d ff7c ecbc 4b3b f6bc c3a7 e43d
000001e0: 33b3 083d b68d 2e3e f10e 07be 1bfd 61bb
000001f0: 769e 38be cde1 703d 4cdf 03bc cfaa 493d
00000200: 9d7d 5f3e 989a 97bc 7ffd dd3d 48f7 b7bc
00000210: b537 86be e8fc 3cbc fe9f 72bd 276a 0d3e
00000220: c439 913d d34c 00bd 6280 283e 1175 5c3d
00000230: 257a 22be 9df8 713d a6d7 a9bd 8a5f 5ebe
00000240: 0390 073d fe3a d53c 8955 3a3d 4554 d23b
00000250: 4c8b 31bc ec89 ab3c e5ad 383d 9325 a23c
00000260: eb11 2e3d ad0a 8b3d d578 f03c c67a cabd
00000270: cc81 b93d 9f89 42bb ffe7 f7bd 7e78 e93d
00000280: 37f5 953c 2f7f cdbd 364b 9bbd fed1 adbd
00000290: 5863 adbc a5b6 09bc f810 bfbc 66b3 d0bc
000002a0: 955f b63d 9a55 f03d 1e69 c33c 3fb9 64be
000002b0: 3ed1 57be 4dbb 2abe 1de6 f8b9 6d15 3b3c
000002c0: c7ce 84b8 e4d0 743e 79a5 5c3e e7f5 063e
000002d0: a0c0 da3d 719e 133e ac5b d63c e7fb 873d
000002e0: 2feb 5a3d 9d70 87bd 8753 c4bd 5e54 01be
000002f0: 9ec6 e5bd a8ab 083e 7d59 e33c c84b 3cbc
00000300: f0b6 a53d 74c3 9ebd 22a8 04be 6876 843d
00000310: 83dd 5abc 1afe 4bbd ac7b 0e3d ea65 e2bc
00000320: 0b57 aebd c81a 35bd 8953 bd3d 3190 2abc
00000330: bead a13c c722 563d 2581 c3bc acdb 433c
00000340: ab66 f7bc aaed a6bc 0fca a9bb 13ea 2cbe
00000350: f54f 053d 1865 4cbc 14ac 913d 4d0f fb3d
00000360: 2e95 16bd fe4e f6bb cbf2 69ba 57d7 1f3d
00000370: df39 fabb dbcb 32bd 39a1 343d c348 643d
00000380: 56ca da3b 890b 0fbc 6873 f9bc 9211 e03c
00000390: 74eb 6cbd 76a9 2a3e 6958 30bd 6a0c b1bc
000003a0: c668 fdbd 629c b03d ab16 e33d c185 91bb
000003b0: 1004 f13c 9120 353d 8805 31bd d8d9 4abd
000003c0: feeb b83c 1be4 4cbd 494c e5bc 2029 c73d
000003d0: c5c6 24bd 4602 d23d 27ca d1bb 869d 60be
000003e0: b80a 873c 79b0 1c3d e933 1cbd b213 213d
000003f0: 3ccd 08bd 41b7 83bd b278 d83c bd7a 5abd

blkresc.0.depthwconv.weight f4 [64, 64, 3, 3]
-0.053726286 -0.035541672 0.027587472 -0.056774575 -0.0133948205 0.03716636 -0.00530574 0.067801744
0.078625344 0.028078072 0.0139957275 0.044902578 -0.013692433 -0.041465744 0.04129365 0.038084853
-0.054284062 0.0136560695 0.019621607 0.02729281 0.029583337 0.036754582 0.056087546 0.10012285
-0.02979759 0.008742575 0.049637288 0.024798613 -0.009564224 -0.055775072 0.020713419 -0.010232272
-0.040578317 0.035001207 0.04155688 0.028444028 -0.04758606 -0.050583977 -0.05417367 0.031691376
0.020923622 -0.0024723187 0.012481176 -0.030160643 -0.06846123 0.044417847 0.05333547 0.043896604
0.048409108 0.035522807 0.036442675 0.07926042 0.06647858 0.030249016 -0.05183925 0.004122653
-0.046535082 -0.013335752 0.036784664 -0.018121108 -0.03309003 0.0043628765 -0.076708876 -0.046427164
-0.03615618 -0.060567573 -0.007996031 0.026684735 -0.026867686 -0.02690578 0.008039549 -0.022569349
-0.0044246353 0.019671917 -0.005394385 0.01594343 -0.006465006 0.028388696 0.09992551 0.039170403
0.050490074 -0.008633677 -0.015109324 -0.014789165 -0.014232895 -0.034276407 -0.015732387 -0.004814479
-0.015674373 -0.016086185 0.021117188 -0.048129678 -0.061784253 0.019599976 -0.0077587524 0.004018688
-0.0038060353 3.6665835e-05 0.02755388 -0.0034205967 0.029950764 0.01027244 0.06598494 0.07395169
0.063990735 0.026394494 0.034725282 0.060143296 0.022749037 -0.02082146 0.012190661 0.036523994
-0.018799502 0.0115606375 0.0035514415 -0.017706303 0.017017638 0.004474239 0.03698673 0.04732076
-0.045256197 -1.346424e-05 0.0131206475 -0.01927295 0.027946748 -0.0055952813 0.06805396 0.031622205
0.013385653 0.06913555 0.06259821 0.076256 0.08642846 0.12372991 0.13830847 0.06367501
0.060940444 0.055950798 0.030612295 0.033179305 0.021034006 0.047882583 0.06631473 0.03818924
0.025797565 0.02989514 0.03115081 0.008207272 0.017991543 0.023786373 -0.009306759 0.006439491
0.006881346 -0.053730816 -0.057584614 -0.07461629 -0.023057831 -0.029067049 -0.020098956 0.005470597
0.0044947243 -0.024056654 -0.012620823 -0.028391086 -0.052938648 0.008869668 -0.010173808 -0.05582929
0.01233304 0.016049128 -0.03534265 -0.06437462 -0.0815696 -0.037957944 -0.06141588 -0.04854746
-0.04427184 -0.064340554 -0.069794066 -0.03149825 -0.005658701 0.011145926 -0.0060691955 0.0092660645
0.035543144 0.011501747 0.003174661 0.047458265 0.029109688 0.0054654726 -0.0054092165 0.0063108355
0.0071472735 -0.055949412 -0.060230095 0.098595865 0.067263976 0.025744146 -0.03721088 -0.0058448645
-0.008601278 -0.028962502 -0.01458674 0.007535596 -0.020247933 -0.047988817 -0.010391437 -0.07379318
-0.028719636 -0.046803407 -0.031995 0.02423173 -0.0067635025 -0.017415063 0.03305523 -0.003919882
-0.014237662 -0.003290238 -0.020218184 -0.022315009 -0.020520817 -0.033584144 -0.028474094 -0.0313364
-0.0034680238 -0.0003783778 -0.021601252 -0.054985348 0.016198093 0.019679895 0.010285789 0.0012321989
0.0130566545 0.0062680095 0.033559866 0.009943922 -0.02336103 0.014301732 0.0072305603 0.01679128
0.019534418 0.03366111 0.06660309 -0.018631177 -0.013213023 -0.03295346 -0.021892807 -0.0049388856
-0.009777308 0.008030904 0.034967724 0.031113284 0.0072273226 -0.013545512 0.046797674 -0.040281482
00000000: 1810 5cbd 2594 11bd 1fff e13c 758c 68bd
00000010: f375 5bbc c13b 183d c6db adbb a4db 8a3d
00000020: 5306 a13d fc03 e63c 564e 653c c4eb 373d
00000030: 3a56 60bc fcd7 29bd 8823 293d ddfe 1b3d
00000040: f758 5ebd b5bd 5f3c 7ebd a03c 2c95 df3c
00000050: c158 f23c f98b 163d 0ebc 653d 350d cd3d
00000060: 131a f4bc 043d 0f3c 7850 4b3d 7626 cb3c
00000070: 43b3 1cbc 6774 64bd 30af a93c 42a5 27bc
00000080: 7335 26bd 6d5d 0f3d 8c37 2a3d 7303 e93c
00000090: 9ae9 42bd 2531 4fbd 36e5 5dbd d1ce 013d
000000a0: 0468 ab3c a006 22bb d97d 4c3c 7413 f7bc
000000b0: 6735 8cbd 7def 353d 4b76 5a3d edcc 333d
000000c0: a148 463d 5d80 113d ea44 153d 4953 a23d
000000d0: ec25 883d c9cc f73c 6555 54bd 5217 873b
000000e0: 929b 3ebd 337e 5abc 84ab 163d b872 94bc
000000f0: 6989 07bd 76f6 8e3b 8b19 9dbd 692a 3ebd
00000100: 8118 14bd b415 78bd c901 03bc f299 da3c
00000110: 9f19 dcbc 8369 dcbc 50b8 033c 5be3 b8bc
00000120: 88fc 90bb 0027 a13c 62c3 b0bb cc9b 823c
00000130: 67d8 d3bb 698f e83c bfa5 cc3d 2571 203d
00000140: aece 4e3d 4474 0dbc 198d 77bc 414e 72bc
00000150: 1731 69bc 6b65 0cbd 35e1 80bc c7c2 9dbb
00000160: 8b67 80bc 2dc7 83bc f4fd ac3c a023 45bd
00000170: 7c11 7dbd 2190 a03c 223d febb 33af 833b
00000180: ad6e 79bb a4c9 1938 adb8 e13c 172c 60bb
00000190: 4e5b f53c bc4d 283c 1d23 873d fc73 973d
000001a0: 930d 833d 4439 d83c 193c 0e3d d158 763d
000001b0: 305c ba3c c491 aabc 57bb 473c 2f9a 153d
000001c0: 6a01 9abc d468 3d3c 4dbf 683b cf0c 91bc
000001d0: 9368 8b3c a39c 923b 667f 173d 6ad3 413d
000001e0: 905e 39bd 78e4 61b7 fcf7 563c 4ee2 9dbc
000001f0: 94f0 e43c 9f58 b7bb e05f 8b3d 4986 013d
00000200: 7f4f 5b3c f096 8d3d 7e33 803d 1b2c 9c3d
00000210: 6801 b13d 1b66 fd3d bca0 0d3e 0b68 823d
00000220: b09c 793d aa2c 653d a3c6 fa3c 06e7 073d
00000230: 824f ac3c 8720 443d 04d0 873d 526c 1c3d
00000240: 6a55 d33c a7e6 f43c fc2f ff3c cb77 063c
00000250: 0063 933c a4db c23c 607b 18bc 5e02 d33b
00000260: ea7c e13b d814 5cbd d8dd 6bbd 6dd0 98bd
00000270: c7e3 bcbc 051e eebc 91a6 a4bc b242 b33b
00000280: 7b48 933b 7612 c5bc 92c7 4ebc 6c94 e8bc
00000290: 32d6 58bd 1552 113c 0bb0 26bc 41ad 64bd
000002a0: 8510 4a3c 7679 833c 74c3 10bd d7d6 83bd
000002b0: f60d a7bd ca79 1bbd 388f 7bbd b4d9 46bd
000002c0: 6456 35bd fbc4 83bd 31f0 8ebd 4f04 01bd
000002d0: a06c b9bb 679d 363c 1ae0 c6bb b1d0 173c
000002e0: b095 113d d371 3c3c f90d 503b 9963 423d
000002f0: 7177 ee3c b517 b33b cc3f b1bb 20cb ce3b
00000300: ad33 ea3b 362b 65bd d5b3 76bd a1ec c93d
00000310: b2c1 893d 63e5 d23c 706a 18bd 4786 bfbb
00000320: 60ec 0cbc c542 edbc 39fd 6ebc 29ed f63b
00000330: fede a5bc ec8f 44bd d940 2abc e120 97bd
00000340: 7145 ebbc eeb4 3fbd 300d 03bd 9f81 c63c
00000350: 5fa0 ddbb 09aa 8ebc ec64 073d 5a72 80bb
00000360: 1545 69bc 09a1 57bb 9ba0 a5bc f7cd b6bc
00000370: 461b a8bc 878f 09bd 8142 e9bc 995a 00bd
00000380: c947 63bb 0261 c6b9 1cf5 b0bc 5138 61bd
00000390: ddb1 843c bb37 a13c ba85 283c bc81 a13a
000003a0: 94eb 553c e063 cd3b 1276 093d d5eb 223c
000003b0: a15f bfbc d051 6a3c 56ee ec3b de8d 893c
000003c0: a506 a03c 3be0 093d 3367 883d 69a0 98bc
000003d0: 6f7b 58bc 35fa 06bd 8b58 b3bc 60d6 a1bb
000003e0: 0131 20bc 0e94 033c 513a 0f3d 49e1 fe3c
000003f0: 2dd3 ec3b ffed 5dbc ebae 3f3d 32fe 24bd

lastresc.weight f4 [1, 64, 3, 3]
-0.20805044 -0.23271973 -0.015409839 0.032310553 0.09757492 -0.1360782 0.054843068 0.06770421
0.16593014 0.07420411 -0.043885987 0.1366111 0.1970988 -0.03357649 -0.053348206 0.2034263
-0.10821412 0.26592895 0.052240603 0.34824565 -0.17487124 -0.18573093 0.062046893 -0.010434672
0.02260102 -0.17410672 -0.23899458 0.2215905 -0.10328392 0.11936994 0.20333588 0.3467442
-0.23936012 -0.079188116 -0.08526365 0.14140646 -0.16400208 0.36995512 0.14035116 -0.039478708
0.44102368 -0.023282107 0.0029909732 -0.52998155 -0.2676308 -0.012048162 0.26797011 0.20134374
0.05001936 -0.08355589 0.5928259 -0.22687599 0.00854302 0.2962077 -0.55385596 0.4045688
0.028238513 -0.13320297 0.30708873 -0.040831722 -0.014054901 -0.06684114 0.21419412 -0.025079878
-0.064428866 -0.090670645 0.0916294 0.25383925 0.33375806 0.1646129 0.080201045 0.0043164534
-0.025567837 0.159948 -0.063083865 0.20125459 0.0150784 0.14274928 0.1955032 0.37860963
-0.056612156 0.3707834 0.06582759 -0.03902302 -0.16573411 0.20573555 0.105158955 -0.309944
0.16667667 0.10693759 0.014389305 0.22113046 0.55529666 -0.02483005 0.05255207 0.18648687
-0.01034124 -0.11342679 -0.34313527 0.16727757 0.04584194 0.17565084 -0.086026706 0.042906363
0.15938707 -0.087053314 0.13752387 0.054741405 -0.06644436 0.31837183 -0.29462546 -0.13151102
-0.1416866 0.15042488 0.112621196 -0.17560948 0.21653976 0.25605428 0.5958807 0.11186343
-0.19195448 0.045409735 0.09068769 -0.3340037 -0.24604158 -0.18340272 0.16606553 -0.29290044
-0.27776256 0.04055855 -0.31857452 -0.03125739 0.16780642 0.38452432 -0.4471612 0.34271267
0.03249751 -0.020308962 -0.08337908 -0.15081148 -0.29305112 0.1420302 0.19861576 0.17573102
-0.03977204 0.074841864 -0.3728798 -0.009858804 -0.084033184 -0.25822458 -0.22852628 -0.27021575
-0.12941398 0.018299347 0.28523815 -0.033370674 -0.6027049 0.37753013 -0.22125563 -0.12303356
-0.10491961 -0.28442937 -0.28700155 -0.33393863 0.31074265 -0.015145625 0.20668861 0.23738512
-0.3247942 -0.20862173 -0.17777225 -0.04122627 -0.114614464 0.35449722 0.025881983 -0.27561364
0.103894226 0.16248493 -0.20428115 -0.12831743 0.2951328 0.19150929 0.038908403 -0.14725108
-0.06681532 0.15605016 -0.06457444 -0.2577606 0.11605612 0.08918802 0.16741027 0.06922805
0.38548595 0.088414475 -0.031957258 -0.08682017 0.017947314 0.38818124 0.22642112 0.076622084
0.48591825 -0.23395316 0.6949507 0.399769 0.015179738 0.28329566 0.14560476 -0.22364314
0.2591207 0.17937478 0.08062674 0.22589482 -0.07829954 -0.18640311 0.2815859 0.29953906
-0.09531387 0.0397504 0.18325453 0.12262646 -0.4603467 -0.38029304 -0.015803793 -0.029578699
-0.12834674 0.16121924 0.124157585 0.028881352 0.09089949 -0.07636598 -0.34842503 -0.15419282
0.16463746 -0.17233995 0.1269826 -0.03709451 0.06700731 -0.13832203 -0.25873014 0.19533114
0.067804635 0.19652887 0.08436136 -0.19599211 -0.0039002195 -0.28051546 -0.26014337 0.029146556
-0.33067858 0.119236365 -0.013580297 0.0800397 -0.054216113 -0.0073035816 -0.10190479 0.40723726
00000000: 2d0b 55be 154e 6ebe 8d79 7cbc 1258 043d
00000010: 5cd5 c73d 1558 0bbe 20a3 603d 81a8 8a3d
00000020: 97e9 293e 53f8 973d cbc1 33bd c8e3 0b3e
00000030: 45d4 493e 8087 09bd a683 5abd fc4e 503e
00000040: 5d9f ddbd d727 883e 3efa 553d 414d b23e
00000050: 7211 33be 4030 3ebe e224 7e3d 30f6 2abc
00000060: c625 b93c 0849 32be ffba 74be 9fe8 623e
00000070: 8586 d3bd 3a78 f43d 4837 503e 7588 b13e
00000080: d21a 75be 612d a2bd b59e aebd dbcc 103e
00000090: 29f0 27be c26a bd3e 37b8 0f3e 6db4 21bd
000000a0: dbcd e13e 1eba bebc 3404 443b dfac 07bf
000000b0: e706 89be a765 45bc 6133 893e 0e2d 4e3e
000000c0: 1ae1 4c3d 5a1f abbd 70c3 173f 2e52 68be
000000d0: 06f8 0b3c 89a8 973e 81c9 0dbf a423 cf3e
000000e0: 7454 e73c 5c66 08be bc3a 9d3e 2a3f 27bd
000000f0: 8746 66bc 02e4 88bd b455 5b3e 5174 cdbc
00000100: 48f3 83bd 88b1 b9bd 32a8 bb3d 38f7 813e
00000110: 56e2 aa3e 4990 283e 7240 a43d 0971 8d3b
00000120: a473 d1bc 69c9 233e 1d32 81bd af15 4e3e
00000130: 650b 773c de2c 123e fe31 483e 1fd9 c13e
00000140: 26e2 67bd 52d7 bd3e 9ed0 863d 9ad6 1fbd
00000150: 34b6 29be 57ac 523e 945d d73d fbb0 9ebe
00000160: 4aad 2a3e 1802 db3d 1fc1 6b3c 0670 623e
00000170: ec27 0e3f 6468 cbbc d740 573d 6af6 3e3e
00000180: 4e6e 29bc 4e4c e8bd 6daf afbe d04a 2b3e
00000190: c2c4 3b3d d0dd 333e c52e b0bd 95be 2f3d
000001a0: 5d36 233e 0249 b2bd 0fd3 0c3e 8638 603d
000001b0: fb13 88bd a201 a33e 26d9 96be d3aa 06be
000001c0: 4b16 11be fb08 1a3e f1a5 e63d f9d2 33be
000001d0: 99bc 5d3e 8c19 833e a38b 183f a718 e53d
000001e0: b78f 44be 8fff 393d 78ba b93d 8802 abbe
000001f0: 53f2 7bbe eccd 3bbe 150d 2a3e 0cf7 95be
00000200: e536 8ebe b920 263d 331c a3be c007 00bd
00000210: 72d5 2b3e 5fe0 c43e 50f2 e4be 0978 af3e
00000220: 1c1c 053d fb5e a6bc a7c2 aabd 536e 1abe
00000230: cc0a 96be 5d70 113e ee61 4b3e d5f2 333e
00000240: 02e8 22bd b146 993d 1aea bebe d286 21bc
00000250: 9719 acbd 0336 84be cb02 6abe b859 8abe
00000260: 1985 04be 83e8 953c bc0a 923e b0af 08bd
00000270: de4a 1abf a14b c13e d690 62be 05f9 fbbd
00000280: 18e0 d6bd baa0 91be def1 92be 01fa aabe
00000290: a919 9f3e 5b25 78bc 2ea6 533e 1615 733e
000002a0: 6d4b a6be efa0 55be ee09 36be e1dc 28bd
000002b0: fdba eabd a980 b53e 7406 d43c 3b1d 8dbe
000002c0: 7fc6 d43d 7362 263e 142f 51be a565 03be
000002d0: a51b 973e 031b 443e 6b5e 1f3d fdc8 16be
000002e0: 78d6 88bd 9dcb 1f3e 9b3f 84bd 33f9 83be
000002f0: d5ae ed3d 35a8 b63d 996d 2b3e 70c7 8d3d
00000300: 6a5e c53e a612 b53d 9de5 02bd c6ce b1bd
00000310: 3f06 933c b1bf c63e f0da 673e 0aec 9c3d
00000320: 47ca f83e 6b91 6fbe 4ae8 313f 86ae cc3e
00000330: 70b4 783c 210c 913e 6a19 153e b502 65be
00000340: 78ab 843e 06ae 373e a21f a53d f950 673e
00000350: 825b a0bd 75e0 3ebe 072c 903e 2f5d 993e
00000360: eb33 c3bd 51d1 223d 13a7 3b3e 9523 fb3d
00000370: 90b2 ebbe c5b5 c2be f576 81bc 074f f2bc
00000380: 546d 03be a816 253e 5546 fe3d 9698 ec3c
00000390: 8329 ba3d c465 9cbd c464 b2be b9e4 1dbe
000003a0: b996 283e e279 30be ba07 023e 6af0 17bd
000003b0: 213b 893d 4aa4 0dbe 4778 84be e304 483e
000003c0: 28dd 8a3d dd3e 493e a6c5 ac3d 28b2 48be
000003d0: d39a 7fbb b99f 8fbe 8331 85be c2c4 ee3c
000003e0: b44e a9be 3232 f43d e57f 5ebc dbeb a33d
000003f0: b711 5ebd e252 efbb 75b3 d0bd 6781 d03e
