CSNet96_01.pt (torch_old, 235501 bytes, 5 tensors)

cssample.weight f4 [10, 1, 32, 32]
0	0xbb4d6691	-0.0031341652
1	0x3b22e24b	0.002485412
2	0xbbf9c42d	-0.007622263
3	0xbaf2cccd	-0.001852417
4	0x3af375a5	0.001857449
5	0x3bd9e3f0	0.0066494867
6	0x3bb72c09	0.005589966
7	0x3ce4aca3	0.02791435
8	0xbbad205f	-0.0052834
9	0x3b30b5f3	0.002696392
10	0x3a559f66	0.00081490574
11	0x3beff15f	0.007322475
12	0x3af9c707	0.0019056507
13	0x3bf7a2c7	0.0075572464
14	0xb9ce3548	-0.0003933108
15	0xbbf66b41	-0.00752011
16	0x3a38b957	0.0007046661
17	0x3bc88ee9	0.006120552
18	0x3ca359e0	0.019940317
19	0x3c55d1f7	0.013050548
20	0x3b7d8e00	0.0038689375
21	0xbb75490f	-0.003742758
22	0x3c74e39b	0.0149468435
23	0x3bb55eda	0.005534989
24	0x3bf95ebe	0.007610171
25	0xbc09e93c	-0.008417424
26	0xbc5ca382	-0.013466718
27	0x3b684bc4	0.003544555
28	0xbb56aa2b	-0.0032755237
29	0x3b1b599b	0.0023704532
30	0x39df71f3	0.00042618773
31	0x3bde9ef8	0.006793853
32	0xbc61a3c0	-0.013771951
33	0x3966e30d	0.00022019092
34	0x3b5e3e86	0.0033911779
35	0x3be16805	0.006878855
36	0xbc98fc46	-0.01867498
37	0x3b5dc225	0.0033837643
38	0xbb5d05eb	-0.0033725451
39	0xbb78d20c	-0.0037966995
40	0x3c4a5792	0.01234998
41	0xbba12094	-0.0049172137
42	0xbc1f16c6	-0.009710019
43	0xba822609	-0.0009929548
44	0x3b3fa1c3	0.0029240705
45	0xbb64a85b	-0.0034890387
46	0xbb5fc608	-0.0034145135
47	0xbb90e0a1	-0.004421309
48	0x3c5bd082	0.013416411
49	0xbc20b2ff	-0.009808301
50	0xbc564e54	-0.013080198
51	0xbc6d149f	-0.0144702485
52	0xbc93e80d	-0.018054986
53	0xbaa5a0c9	-0.0012636419
54	0xba6cdf3d	-0.00090359506
55	0xbb0320c3	-0.0020008541
56	0xbc32c1a6	-0.010910427
57	0xbc87eea1	-0.01659328
58	0xbc8ca850	-0.017170101
59	0xbc222e88	-0.009898789
60	0x3c56aa01	0.0131020555
61	0xbc120149	-0.008911439
62	0xbc9044e0	-0.017610967
63	0x3bb1efbb	0.0054301894
64	0xbb5dfbe1	-0.0033872055
65	0x39899ad3	0.0002624603
66	0x38cb902d	9.706649e-05
67	0xba6841e1	-0.00088599144
68	0x3bff3b21	0.007789031
69	0xbc754b89	-0.014971622
70	0xbbd3a297	-0.006458591
71	0x3bdda59a	0.006764126
72	0xbc1ba1f1	-0.009499059
73	0x3c369457	0.011143765
74	0xbc0eee05	-0.0087237405
75	0x3a8686bc	0.0010263543
76	0x3bd775a2	0.006575302
77	0xbbd19a5b	-0.0063965744
78	0xba0e254b	-0.0005422427
79	0xbb108cf3	-0.0022056669
80	0xbad7ec1d	-0.0016473565
81	0x3b8f0798	0.004364919
82	0x3c69415d	0.014236775
83	0x3ab835e2	0.0014054144
84	0xbba525e5	-0.005039918
85	0x3a163be4	0.00057309703
86	0xbca4e22f	-0.020127384
87	0xbb4a2ad2	-0.0030848277
88	0xbc3225b6	-0.010873249
89	0xbc7d2320	-0.015450269
90	0xbc2007ac	-0.009767454
91	0xbc4b101b	-0.012393977
92	0xbb8d26cb	-0.004307603
93	0x3a88b3eb	0.0010429596
94	0xbc54aeb4	-0.012981106
95	0x3cdbb990	0.026821882
96	0xbb4f1007	-0.0031595246
97	0xbcacd08a	-0.021095533
98	0xbc0a6cdf	-0.008448808
99	0x3b6c673c	0.0036072275
100	0xbcb03b95	-0.021512786
101	0xbc095dc9	-0.0083841765
102	0x3be43bac	0.0069651213
103	0x3b3307c8	0.002731787
104	0x3bd51dab	0.006503781
105	0xbc13f57a	-0.009030694
106	0x3b4318a6	0.002976933
107	0xbbee8b70	-0.007279806
108	0x3b1df64c	0.0024103103
109	0xbbb2bc17	-0.005454551
110	0xbb5daa5e	-0.003382347
111	0xbc6022cf	-0.013680174
112	0xbc5a07a2	-0.013307484
113	0x3b12c71a	0.0022396506
114	0xbc4903ff	-0.012269019
115	0x3b32791d	0.0027232834
116	0xbca90efd	-0.02063703
117	0xbc1b145b	-0.009465302
118	0xbc4a7aa4	-0.012358341
119	0xbcb7e777	-0.022449238
120	0xbc8ff864	-0.017574497
121	0xbcad1393	-0.021127498
122	0xbc6adace	-0.014334394
123	0xbc1781ff	-0.009247302
124	0xbc5d8503	-0.013520482
125	0x3b113c03	0.0022161014
126	0xbc7cb17e	-0.015423177
127	0x3b327989	0.0027233085
128	0xbb64c3e7	-0.0034906806
129	0xbb628c44	-0.0034568468
130	0x3c3f1499	0.011662626
131	0xbc566e9e	-0.013087897
132	0xbafadf21	-0.0019139984
133	0xbc0c6405	-0.008568768
134	0xbd16a04b	-0.03677396
135	0x3bbe55fa	0.005808589
136	0x3989a369	0.00026252426
137	0xbcb8d7d2	-0.022563849
138	0x3c28652f	0.01027803
139	0x3be96c5d	0.0071235136
140	0x3ba90489	0.0051580113
141	0x3b671a0b	0.0035263326
142	0x39b23e39	0.00033997165
143	0xbc04a32e	-0.008095546
144	0x39a20562	0.00030903058
145	0xbb810140	-0.0039369166
146	0xbc3cb880	-0.011518598
147	0xbb5b2331	-0.0033437724
148	0xb99d61d8	-0.00030018273
149	0xbc017c3b	-0.007903154
150	0xbc469989	-0.012121567
151	0xbd009877	-0.0313954
152	0xbd13335b	-0.03593765
153	0xbd1a8215	-0.037721712
154	0xbc22a739	-0.009927564
155	0xbcd98037	-0.026550395
156	0xbbaabaab	-0.005210241
157	0x385326dd	5.0342514e-05
158	0xbc50537e	-0.012715219
159	0x3a88e29d	0.0010443513
160	0x3c25a3ec	0.010109883
161	0xbc92a841	-0.017902495
162	0xbc4f3e5b	-0.012649144
163	0xbc369c5d	-0.011145678
164	0xbcc2d1d7	-0.0237817
165	0xbbe2bc2c	-0.0069194045
166	0x3b98b8f1	0.0046607186
167	0x3aa12aa2	0.0012296031
168	0xbbb98439	-0.005661514
169	0xbc15a393	-0.009133237
170	0x3c98873a	0.018619169
171	0xbc14b758	-0.009076916
172	0xbc8d75d0	-0.017268091
173	0x3c288bac	0.010287207
174	0xbc346ff1	-0.011013017
175	0x3ab42f8a	0.0013747078
176	0x3bfc0b29	0.00769176
177	0xbbee80c8	-0.0072785355
178	0xba472cfe	-0.0007597952
179	0xbbf9f3c6	-0.007627937
180	0xbc9535b9	-0.018214094
181	0x3c51a28f	0.012795105
182	0xbcf910df	-0.030403553
183	0xbd18c914	-0.037301138
184	0xbd2bcd71	-0.04194397
185	0xbd2cf8f3	-0.042229604
186	0xbd161a80	-0.036646366
187	0xbc0153ea	-0.007893542
188	0xbc83bbf6	-0.016080838
189	0xbc76a8f7	-0.015054933
190	0xbb626d46	-0.0034549995
191	0x3cbffcce	0.023435976
192	0xbbc86c4a	-0.0061164247
193	0x3a535609	0.00080618315
194	0xbc07774b	-0.008268188
195	0xbc658252	-0.014008122
196	0xbcda663e	-0.026660081
197	0xbd43d0b7	-0.047806468
198	0xbcc62ebd	-0.024192208
199	0xbbe978c3	-0.0071249916
200	0x3b48e5ed	0.0030654625
201	0xbc9da902	-0.019245628
202	0x3ca90f0e	0.020637061
203	0x3be54542	0.0069967816
204	0x3bcb342d	0.006201288
205	0xbb201d75	-0.002443162
206	0x3b060b5a	0.0020453543
207	0x3b887d01	0.0041652923
208	0xbc08ca04	-0.0083489455
209	0x3bbf51fe	0.0058386317
210	0x3c42fa7b	0.0119005395
211	0xbc17f085	-0.009273653
212	0xbc016ca8	-0.007899441
213	0xbc4c8742	-0.01248342
214	0xbd195a8f	-0.03743988
215	0xbd38c7c2	-0.04511238
216	0xbd451fa5	-0.04812588
217	0xbd625382	-0.05525542
218	0xbd370c99	-0.04468975
219	0xbcdd05f1	-0.026980372
220	0xbcc47d9d	-0.023985678
221	0xbbcb4770	-0.0062035844
222	0xbb788e48	-0.0037926603
223	0x3a8482d8	0.0010109795
224	0xbc07bed0	-0.008285239
225	0xbb7ac17d	-0.00382623
226	0xbc6cc67a	-0.014451617
227	0xbca337b1	-0.019924017
228	0xbc065a93	-0.0082003055
229	0xbb0202e1	-0.0019838142
230	0xbbca4255	-0.006172458
231	0x3c18ec66	0.0093337055
232	0x3b03a8f2	0.0020089713
233	0x3c7b5a87	0.015341408
234	0x3c721041	0.014774383
235	0x3bbde463	0.005795048
236	0x3ba56a87	0.0050480994
237	0x3c56be67	0.013106919
238	0xbabb457e	-0.0014287678
239	0xbc7725c1	-0.015084685
240	0xbc1de3b0	-0.009636804
241	0x3c3745ae	0.0111860465
242	0x3be98bd9	0.007127267
243	0xbbbc4236	-0.0057451976
244	0xbba42659	-0.005009454
245	0xbc1db447	-0.009625501
246	0xbccca947	-0.024983061
247	0xbd0f8cd0	-0.0350464
248	0xbd2b6af6	-0.041850053
249	0xbd2cd1b3	-0.042192172
250	0xbd39a557	-0.045323696
251	0xbd347dec	-0.0440654
252	0xbc93359e	-0.017969903
253	0xbc1613f4	-0.009160031
254	0x3b80a9bc	0.003926484
255	0xbb32aaba	-0.0027262405

initresc.weight f4 [1024, 10, 1, 1]
0	0x3d6409a8	0.05567327
1	0xbd1584d3	-0.036503624
2	0xbd28a6c1	-0.041174654
3	0xbda28b8d	-0.079367734
4	0xbbde4c25	-0.0067839795
5	0x3c8d0c3d	0.01721775
6	0xbc8168e2	-0.015797082
7	0x3d464198	0.0484024
8	0xb841a488	-4.6168017e-05
9	0xbc70fcfd	-0.014708755
10	0x3c49af79	0.012309902
11	0xbd287949	-0.04113129
12	0x3c34bdc3	0.011031571
13	0xbd7fb2d8	-0.062426418
14	0xbc101307	-0.008793599
15	0x3bad4c67	0.005288649
16	0xbc81cb27	-0.01584394
17	0x3cf36cc1	0.029714944
18	0xbd0c9b92	-0.03432805
19	0xbc8dcc63	-0.017309373
20	0xbc25032f	-0.01007156
21	0xbd0d306b	-0.034470003
22	0xbc0a168e	-0.008428229
23	0xbd580786	-0.05274155
24	0xbc87d8dd	-0.0165829
25	0xbcdacf9f	-0.02671033
26	0x38d912e2	0.000103508835
27	0x3cbf9a72	0.023389075
28	0xbcdcdc4d	-0.026960516
29	0xbb019bff	-0.0019776819
30	0x3c9aa41e	0.018877085
31	0xbd0aff8b	-0.03393511
32	0xbd2d503b	-0.04231284
33	0xbd8c0976	-0.06837742
34	0x3cf2b507	0.029627336
35	0x385c23f4	5.248557e-05
36	0xbd0a08f5	-0.03369995
37	0x3d86cb93	0.065817975
38	0x39c65c3b	0.0003783422
39	0xbd5f3007	-0.05448916
40	0x3c5095b2	0.012731003
41	0xbca4fbbf	-0.020139573
42	0xbd040ed9	-0.032240722
43	0xbd08214f	-0.03323489
44	0xbbca550d	-0.0061746896
45	0xbd01f2ad	-0.031725574
46	0x3c96fa8e	0.01843002
47	0x3bf9e976	0.0076267077
48	0xbb8e01a9	-0.004333694
49	0xbcef79be	-0.029232856
50	0x3d797061	0.06089819
51	0xbd284c40	-0.041088343
52	0xbd051c75	-0.032497842
53	0xbdbb76f3	-0.09153547
54	0xbc7f7e29	-0.015594044
55	0x3d45ace4	0.048260584
56	0xbd1eae6d	-0.038740564
57	0x3dd2ad93	0.10287013
58	0x3c3621c9	0.011116453
59	0x3bd518ae	0.006503186
60	0x3ce3f89a	0.027828503
61	0xbd4a809f	-0.04943907
62	0xbc572bdb	-0.013133015
63	0xbde0e67e	-0.10981463
64	0xbccfc592	-0.025362764
65	0x3cda910c	0.026680492
66	0xbca31dc3	-0.019911652
67	0x3ba0ecad	0.0049110265
68	0xbc8d03eb	-0.017213782
69	0x3ca63355	0.020288149
70	0x3c46fecc	0.012145709
71	0xbd4fc164	-0.05072154
72	0x39dfe773	0.00042706318
73	0xbda4f26b	-0.0805405
74	0xbd0d2d09	-0.034466777
75	0x3be1d827	0.0068922224
76	0x3b7d24e2	0.003862672
77	0x3b327b6c	0.002723421
78	0xbc76410c	-0.015030157
79	0x3c6b7338	0.014370732
80	0xbbfa57c2	-0.007639856
81	0xbc9dcde8	-0.019263223
82	0xbc856851	-0.016285094
83	0xbc5ed894	-0.013601441
84	0xbc9d8b41	-0.01923144
85	0xbd52f211	-0.051500384
86	0x3c3ecfe9	0.011646249
87	0xbbfc695b	-0.007702989
88	0xba02ce2a	-0.0004989827
89	0x3bd7cc74	0.006585652
90	0x3d06a819	0.032875154
91	0xbab7b520	-0.0014015771
92	0xbc9467e5	-0.018115947
93	0xbd5ee14b	-0.054414075
94	0x3af9b4d7	0.0019051087
95	0x3c58409b	0.013198997
96	0xbc9b3b4b	-0.018949172
97	0x3da057d8	0.07829255
98	0x3b768197	0.0037613863
99	0xbce6dd01	-0.028181555
100	0x3d9e6448	0.07733971
101	0xbc18354a	-0.009290049
102	0xbd0ddcd9	-0.034634445
103	0xbd835d92	-0.064143315
104	0xbc898379	-0.016786324
105	0x3c280ca4	0.01025692
106	0x3ba17bf2	0.0049281055
107	0x3d58ef23	0.052962434
108	0x3b818ba2	0.003953413
109	0xbc73cd5d	-0.014880505
110	0xbc9ae5cd	-0.018908406
111	0xbd986e6e	-0.07442938
112	0x3c3cdcb1	0.011527226
113	0xbde158c3	-0.11003258
114	0xbd163b3f	-0.036677595
115	0x3d0a5ef1	0.03378195
116	0xbcbb60c4	-0.02287329
117	0x3b0020d8	0.0019550826
118	0xbc3f70c2	-0.011684598
119	0x3bb1eb18	0.0054296367
120	0xbcfc5214	-0.030800857
121	0xbd58c571	-0.05292267
122	0x3cca5896	0.024700444
123	0xbd6a125b	-0.05714641
124	0xbbcf1809	-0.006320004
125	0xbca80536	-0.020510297
126	0x398aacd3	0.00026450175
127	0xbcba8c40	-0.022771955
128	0xbcd2719c	-0.025688939
129	0xbb197d59	-0.002342066
130	0x3b7fcf39	0.0039033426
131	0xbc50858f	-0.012727155
132	0x3aba7b01	0.0014227332
133	0xbd6c5c06	-0.057704948
134	0xbd1b3f5d	-0.037902225
135	0xbc766af4	-0.015040148
136	0xbb80dce7	-0.0039325836
137	0xbc3fc7fa	-0.011705393
138	0x3bd93eb5	0.0066297897
139	0x3d405343	0.046954405
140	0x3d36abae	0.04459732
141	0xbb0085e4	-0.0019611055
142	0xbcba39a7	-0.022732569
143	0x3ba3e0db	0.00500117
144	0xbc4cbb7d	-0.012495873
145	0xbd55090e	-0.05201059
146	0x3d2bfb00	0.04198742
147	0xbd28179c	-0.04103814
148	0x3d25a49e	0.040440194
149	0x3c382d21	0.011241228
150	0x3c45aac1	0.012064637
151	0xbcb3c449	-0.021944182
152	0xba2e64f3	-0.0006652616
153	0xbd3d7f3b	-0.046263915
154	0xbc8b1bd1	-0.016981037
155	0xbccca0ca	-0.024979014
156	0x3bdadf72	0.006679469
157	0xbd06a786	-0.032874607
158	0x3bb67241	0.0055678193
159	0x3c9bd3f2	0.019021962
160	0x3d12d149	0.03584412
161	0xbc47594a	-0.012167284
162	0xbd2abc63	-0.041683566
163	0x3c3f7c53	0.011687356
164	0xbcd7a997	-0.026325984
165	0xbcdb4ba7	-0.026769472
166	0x3d5f360c	0.054494902
167	0x3cfae276	0.030625563
168	0x3d269e08	0.040678054
169	0x3bd0f08c	0.0063763317
170	0x3d7f0bfa	0.06226728
171	0x3c4e7c7a	0.01260292
172	0xbd37fc85	-0.044918556
173	0xbc856b02	-0.016286377
174	0xbcaa742c	-0.020807348
175	0xbb1d3530	-0.0023988
176	0x3d0736f2	0.033011384
177	0x3d3e2bca	0.04642848
178	0x3d77708f	0.06041008
179	0xbc151a31	-0.009100483
180	0x3be9b8e5	0.007132637
181	0xbbf1578f	-0.007365174
182	0x3b99f870	0.0046988055
183	0xbd42700a	-0.04747013
184	0xbc969397	-0.018380923
185	0xbc44701c	-0.01198962
186	0xbafdb7b3	-0.0019357115
187	0xbba11135	-0.0049153813
188	0x3c77c317	0.015122197
189	0x3c3a3302	0.0113647
190	0x3d1c61d5	0.038179237
191	0x3b4f7882	0.0031657522
192	0xbd24579a	-0.040122606
193	0xbc3f2445	-0.011666362
194	0xbd08657c	-0.033299908
195	0xbd2d2b5a	-0.04227767
196	0x3c881061	0.016609373
197	0xbbd8ce3f	-0.0066163833
198	0x3d35e337	0.044406142
199	0x3d11eb50	0.035624802
200	0x3d417e27	0.04723945
201	0xbc328649	-0.010896274
202	0xbd32b663	-0.04363097
203	0x3c16aef7	0.009196988
204	0xbc9ec337	-0.019380195
205	0xbcf2cdd7	-0.029639168
206	0x3d42b19c	0.047532663
207	0x3cba8cd6	0.022772234
208	0x3d27b7c1	0.040946726
209	0xbc7a3740	-0.015271962
210	0x3c9d181f	0.01917654
211	0xbc0105f1	-0.007874952
212	0xbc8060bf	-0.015671132
213	0x3d164f3d	0.03669666
214	0x3b78867d	0.0037921958
215	0xbce170ae	-0.02751955
216	0x3d92cf1b	0.071684085
217	0x3d28cacd	0.04120903
218	0x3ced775e	0.028987583
219	0xbd0085a1	-0.03137744
220	0x3d48c8a3	0.049019467
221	0x3d00db97	0.031459417
222	0xbd3233e9	-0.043506537
223	0x3c5775b6	0.013150623
224	0xbcee3909	-0.02907993
225	0xbd076678	-0.033056706
226	0x3d35f45f	0.044422504
227	0x3c243f32	0.010024833
228	0x3d983986	0.07432847
229	0x3c69db03	0.014273408
230	0x3ccf69c1	0.025318982
231	0x3c7f3680	0.015576959
232	0xbcd0ed4c	-0.025503777
233	0xbcc0c820	-0.023532927
234	0xbca3d498	-0.019998834
235	0xbcffa73d	-0.031207675
236	0x3c9b9bf0	0.018995255
237	0xbc8ecafd	-0.017430777
238	0x3d072693	0.03299577
239	0x3cb3f9a1	0.021969618
240	0x3cb8dda8	0.022566631
241	0x3b94dae1	0.004542694
242	0xbc48dae5	-0.01225922
243	0xbc4b4ee1	-0.012408943
244	0xbd262ea4	-0.040571824
245	0xbd0ce566	-0.03439846
246	0x3c86d025	0.016456673
247	0x3ca887f0	0.020572633
248	0x3ca50ade	0.020146783
249	0x3b53a88d	0.003229651
250	0x3d2f034d	0.042727757
251	0xbbdcb699	-0.0067356345
252	0xbbefebf1	-0.0073218276
253	0x3c5a1c51	0.013312415
254	0xbbe2788b	-0.0069113425
255	0xbc97aeec	-0.018516026

firstresc.weight f4 [64, 1, 3, 3]
0	0x3bc6615b	0.006054086
1	0x3c3d9bb5	0.011572768
2	0x3c06c13c	0.008224782
3	0xbb0810a6	-0.0020761876
4	0x3c05261c	0.008126762
5	0x3c4d0067	0.012512303
6	0xbc08537d	-0.008320686
7	0x3c78aec8	0.01517839
8	0x3c88f5d2	0.016718779
9	0xbd0f9960	-0.03505838
10	0x3c6eb145	0.014568632
11	0x3bd5275e	0.006504937
12	0xbc3d4900	-0.011553049
13	0x3bd4f6f0	0.006499164
14	0xbced6c85	-0.02898241
15	0x3c3f681b	0.0116825355
16	0xbd1c1e90	-0.038115084
17	0x3dc7f73b	0.09763952
18	0x3d3bc1f4	0.045839265
19	0xbbfa137e	-0.007631718
20	0xbd3310df	-0.04371726
21	0x3d8b6724	0.06806782
22	0x3be34bb6	0.0069365157
23	0xbd60671d	-0.054785836
24	0x3c8619a9	0.016369658
25	0x3b08e7f4	0.0020890208
26	0xbccd7056	-0.02507798
27	0xbcae3e9d	-0.02127009
28	0xbd804612	-0.06263365
29	0xbdf9318b	-0.12167653
30	0x3c9f3616	0.01943497
31	0x3c312f05	0.010814433
32	0xbd0727b9	-0.032996867
33	0x3cc61bb0	0.024183124
34	0xbb994813	-0.0046777814
35	0xbcfc05c6	-0.030764472
36	0xba9f761b	-0.0012165935
37	0xbdf5d914	-0.12004295
38	0x3b424cd5	0.0029647846
39	0x3dd0b05b	0.10189887
40	0xbccc4d04	-0.024939068
41	0x3dee9620	0.11649728
42	0x3c81fcef	0.015867678
43	0xbdd4460f	-0.10364925
44	0x3c184f49	0.009296247
45	0x3d7577ce	0.059928708
46	0x3c66abd7	0.014079056
47	0xbc8f4296	-0.017487805
48	0x3bafe2aa	0.0053675966
49	0xbc44d876	-0.012014499
50	0xbc993446	-0.018701684
51	0x3c9a2dbc	0.018820636
52	0xbcb39876	-0.021923285
53	0xbc90a41b	-0.017656377
54	0x3cf6b6cc	0.030116461
55	0x3be1b964	0.0068885554
56	0x3d3d7e5a	0.046263076
57	0x3c122e64	0.008922193
58	0x3bd1e3eb	0.006405344
59	0x3d0da2b6	0.034579
60	0xbd302e74	-0.04301305
61	0xbd9dd14d	-0.077059366
62	0xbc8489f7	-0.016179068
63	0xbbdf1007	-0.0068073305
64	0x3d503258	0.05082926
65	0xbbb0772d	-0.0053853006
66	0xbd502192	-0.050813265
67	0x3d452307	0.048129108
68	0xbe148bc2	-0.14506438
69	0xbc73cef0	-0.014880881
70	0x3db67932	0.08909835
71	0x3c755aec	0.014975291
72	0x3c8652b0	0.01639685
73	0x3c2959ce	0.0103363525
74	0xbcde0c2d	-0.027105415
75	0xbd0819cf	-0.033227738
76	0xbcd9e375	-0.026597718
77	0xbb87d01d	-0.004144682
78	0xbd2c13ca	-0.04201106
79	0xbc27c551	-0.010239915
80	0xbce063ca	-0.027391333
81	0xbcc4dd87	-0.024031414
82	0x3cfd224a	0.03090014
83	0xbbb13d32	-0.0054089064
84	0xbc1189f0	-0.0088829845
85	0x3d30493f	0.043038603
86	0xbd320996	-0.043466173
87	0x3d24549d	0.040119756
88	0xbd8c0247	-0.06836372
89	0x3d144181	0.036195282
90	0xba3261d9	-0.00068047416
91	0xbca09809	-0.019603746
92	0xbcb44c79	-0.022009121
93	0xbc2c7cb0	-0.010527775
94	0xbd2e4d3a	-0.042554118
95	0xbcd67157	-0.026177092
96	0x3d91320d	0.070896246
97	0x3d6dd558	0.05806479
98	0xbbac7db7	-0.00526401
99	0x3c89c3e3	0.016817039
100	0x3cbe86a7	0.023257567
101	0xbc582ebd	-0.013194737
102	0x3cf10ba3	0.029424494
103	0x3ac7b8a9	0.0015237528
104	0xbc97f666	-0.01855011
105	0x3c6251f9	0.013813489
106	0xbcd7fb91	-0.026365073
107	0xbcd703c4	-0.026246913
108	0x3c917831	0.017757507
109	0xbc14882d	-0.00906567
110	0x3c0c87bd	0.008577284
111	0x3b910d76	0.0044266535
112	0xbd3f26bf	-0.04666781
113	0xbc2866e9	-0.010278442
114	0xbb8afb6b	-0.004241397
115	0xbd31a782	-0.04337264
116	0xbb885108	-0.0041600503
117	0x3dd68a43	0.1047559
118	0xbcaf1e62	-0.021376792
119	0xbc04fc71	-0.008116827
120	0x3d86e570	0.065867305
121	0xbd8b2489	-0.06794078
122	0xbd29b8c7	-0.041435983
123	0x3d4008e4	0.04688348
124	0x3c5b1244	0.013371054
125	0xbd14dc72	-0.036343046
126	0xbcaed536	-0.021341901
127	0xbcec9fb8	-0.028884754
128	0x3cb73ea9	0.022368746
129	0xbd18f64a	-0.037344255
130	0xbaba3e26	-0.0014209196
131	0x3bc13bc3	0.0058970167
132	0x3ca2f515	0.019892255
133	0xbcae9c22	-0.021314684
134	0x3cfa055c	0.030520134
135	0xbc623df9	-0.013808721
136	0xbb8601ec	-0.0040895846
137	0x3c489c71	0.01224433
138	0x3cb15751	0.021648081
139	0x3c80f1d5	0.015740314
140	0x3d5048a8	0.05085054
141	0x3b9c205b	0.0047645993
142	0x3c36657f	0.011132597
143	0x3ca51784	0.020152815
144	0x3c25ba67	0.010115243
145	0x3d13a585	0.036046524
146	0xbb8d7550	-0.0043169633
147	0xbcb340c0	-0.021881461
148	0x3d744b2b	0.059642
149	0xbdede13f	-0.11615228
150	0x3c43915c	0.011936512
151	0xbaaf7fb3	-0.0013389498
152	0x3cb0db28	0.021588877
153	0xbd0f4312	-0.034976073
154	0xbc8b9f68	-0.017043784
155	0x3d8cbb3c	0.068716496
156	0xbd0c33fd	-0.034229267
157	0x3c655818	0.013998054
158	0x3d18a9c1	0.037271265
159	0xbd6e9b8f	-0.05825382
160	0xbabb68d5	-0.001429821
161	0x3cf54dae	0.029944267
162	0x3afda7b3	0.0019352346
163	0x3c63e33c	0.013909157
164	0x3ab0272c	0.0013439409
165	0xbb760874	-0.003754166
166	0xbc294a6a	-0.010332683
167	0xbb039cd5	-0.0020082493
168	0x3c03b78d	0.008039367
169	0x3cac3e99	0.021025943
170	0x3be03e11	0.0068433364
171	0xbca37885	-0.01995493
172	0xbd66c8b0	-0.056343734
173	0xbcb42787	-0.021991504
174	0x3ce5df57	0.028060598
175	0x3d310f1d	0.043227304
176	0x3bee5f8c	0.0072745737
177	0x3c175ac7	0.009237952
178	0x3b752a70	0.0037409328
179	0x3be44908	0.006966714
180	0x3d17e618	0.03708467
181	0x3cd42ac8	0.025899306
182	0xb9234da7	-0.00015573819
183	0x3c944b06	0.01810218
184	0x3d15b204	0.036546722
185	0xbbc82582	-0.006107987
186	0xbbfb7f9b	-0.007675124
187	0x3c9a3784	0.0188253
188	0xbdd33f30	-0.103147864
189	0x3a6e7114	0.00090958294
190	0xbc381c05	-0.011237149
191	0xbccfcebf	-0.025367139
192	0x3b8bf624	0.0042712856
193	0xbc8863ec	-0.016649209
194	0xbc84c07e	-0.016205069
195	0x3cced3b8	0.02524744
196	0x3d1f1f31	0.038848106
197	0x3a100f91	0.00054954836
198	0x3c46360b	0.012097846
199	0xbc99f0e0	-0.018791616
200	0x3d10a47b	0.03531311
201	0x3d1b633c	0.037936434
202	0xbdba6943	-0.09102108
203	0xbcb5979d	-0.022167021
204	0x3cf3d6c3	0.029765492
205	0x3cc37d18	0.02386336
206	0x3bb6f27a	0.0055831047
207	0x3c6fab7b	0.0146282865
208	0x3c493b76	0.012282243
209	0xbc9d23bb	-0.019182077
210	0x3cf835b5	0.030299047
211	0x3d3e5f33	0.046477508
212	0xbcc25ece	-0.023726847
213	0xbb170163	-0.0023041598
214	0x3cfed57c	0.031107657
215	0xbdc16e4c	-0.094448656
216	0xbb2893ab	-0.0025722783
217	0x3db25775	0.08708087
218	0x3d62e869	0.055397425
219	0xbd3c10dc	-0.045914516
220	0xbe12024e	-0.14258692
221	0xbdeedb86	-0.116629645
222	0x3bc2f37d	0.005949436
223	0x3dd7dceb	0.10540184
224	0x3d5b2dbf	0.053510424
225	0xbcb2b6ca	-0.021815676
226	0x3c8b19ab	0.016980013
227	0x3d8bb54e	0.068216905
228	0xbccf7443	-0.025323993
229	0x3d514170	0.051087797
230	0x3d6bc8f4	0.05756469
231	0xbe1436ed	-0.14474078
232	0xbdab2853	-0.083573006
233	0x3d0a06da	0.03369794
234	0x3ce64d13	0.028112924
235	0x3c588eab	0.013217608
236	0xbce94793	-0.028476512
237	0x3d6fea62	0.058573134
238	0xbb63baed	-0.0034748868
239	0xbc8618e1	-0.016369285
240	0x3d0203ca	0.031741895
241	0x37000c15	7.632208e-06
242	0xbd9d5a2e	-0.07683216
243	0x3d3a7aa7	0.045527127
244	0xbd223756	-0.039603554
245	0x3c889920	0.016674578
246	0x3d916c76	0.071007654
247	0xbe23d243	-0.15998177
248	0x3daa7561	0.083231695
249	0xbdab1f08	-0.08355528
250	0x3dbf68e0	0.09346175
251	0xbcf20c9f	-0.029547034
252	0xbc2cb418	-0.010540985
253	0x3bb778a1	0.005599097
254	0xbb0d97ad	-0.0021605298
255	0x3bb8fefa	0.00564563

blkresc.0.depthwconv.weight f4 [64, 64, 3, 3]
0	0x3d21aa03	0.039468776
1	0x3d02ca43	0.031931173
2	0x3d92b14c	0.07162723
3	0x3cc03685	0.023463497
4	0x3cebda64	0.02879066
5	0x3c88497d	0.016636604
6	0xbcff27c9	-0.0311469
7	0xbc5506ab	-0.013002078
8	0xbc457ca4	-0.012053642
9	0x3cdb34f7	0.026758654
10	0x3cf64924	0.030064173
11	0xbd0dd24c	-0.034624383
12	0x3c8c95e8	0.017161325
13	0xbc9e5709	-0.019328611
14	0xbd8da550	-0.069162965
15	0xbbb37535	-0.0054766187
16	0xbcfded11	-0.030996831
17	0xbd624296	-0.055239283
18	0x3da70994	0.08156124
19	0x3d668e59	0.056288097
20	0x3d1fd852	0.03902466
21	0x3d02e2af	0.031954464
22	0x3d2989c3	0.041391145
23	0x3d3cb8e6	0.04607477
24	0xbc66357d	-0.014050839
25	0x3c879417	0.016550107
26	0xbc6283ee	-0.0138254
27	0xbbaeed00	-0.005338311
28	0xbcdc2631	-0.02687368
29	0xbc8c6803	-0.01713944
30	0xbca293d0	-0.019845873
31	0xbcbd41fc	-0.023102753
32	0x3a0ad6ea	0.0005296307
33	0x3cb01089	0.02149226
34	0x3c81b21b	0.015831998
35	0x3c36f94b	0.0111678345
36	0xbd2f8436	-0.042850696
37	0xbd1d9e7a	-0.038481213
38	0xbcc085d5	-0.023501316
39	0xbd0f01fe	-0.03491401
40	0x3b0c2efe	0.0021390314
41	0x3d3569a9	0.04429022
42	0x3b4a6ab7	0.003088636
43	0xbc5bba63	-0.013411137
44	0x3b2d4e41	0.0026444348
45	0x3ccf3a2d	0.025296295
46	0x3c902726	0.017596792
47	0x3bb413ab	0.0054955087
48	0x3ca6ab81	0.020345451
49	0x3bc15138	0.0058995746
50	0xba775455	-0.00094348687
51	0x3d06ed0e	0.032940917
52	0x3cea38cb	0.028591534
53	0xbc8b96c3	-0.017039662
54	0xbcac7270	-0.021050662
55	0xbd43842d	-0.047733475
56	0xbbd2f5ce	-0.0064379936
57	0xbce7749c	-0.028253846
58	0xbc96a02e	-0.018386927
59	0x3cf1a307	0.029496683
60	0xbcd43c50	-0.025907665
61	0xbcc69c06	-0.02424432
62	0x3c4007ae	0.011720581
63	0xbce49940	-0.027905107
64	0x3ce09aea	0.027417619
65	0x3d58f8c7	0.052971628
66	0xbd228229	-0.03967491
67	0xbc294fa0	-0.0103339255
68	0x3b96a0df	0.004596814
69	0x3b158bba	0.002281888
70	0x3c8dfb01	0.017331602
71	0x3cacd7a8	0.021098927
72	0xba6c5838	-0.0009015831
73	0xbd61d9e7	-0.05513945
74	0x3c03bbe0	0.008040398
75	0x3c85790e	0.016293075
76	0x3cc1656d	0.023607934
77	0xbbe5b268	-0.007009793
78	0xbcdb2c62	-0.026754562
79	0xbd8a49d6	-0.06752364
80	0xbda4c643	-0.08045628
81	0x3d50915d	0.05091988
82	0xbb43d4a5	-0.0029881385
83	0xbc909911	-0.017651113
84	0x3d7899d4	0.060693577
85	0x3cca210e	0.024673965
86	0xbbd2dbc1	-0.006434888
87	0x3dad1bb6	0.08452551
88	0x3d7ae1f0	0.061250627
89	0x3d3c18d0	0.0459221
90	0x3d8b984d	0.068161584
91	0xbbfefa54	-0.0077813063
92	0xbc9714b3	-0.018442487
93	0x3d34d8c1	0.044152025
94	0x3c40829a	0.011749888
95	0x3b9f3b38	0.0048593543
96	0x3d95f5ed	0.07322297
97	0x3d27961d	0.040914644
98	0x3cc73b02	0.02432013
99	0x3d63b634	0.055593684
100	0x3cf113ab	0.029428324
101	0xbd99be14	-0.07506958
102	0x3b674bf1	0.0035293067
103	0x3c226876	0.009912601
104	0xbd256c30	-0.04038638
105	0x3d940ee9	0.072294064
106	0xbca1dd8b	-0.01975896
107	0xbdad4ede	-0.08462308
108	0x3c3c2d63	0.01148543
109	0xbc1d066a	-0.009584049
110	0x3d22050c	0.039555594
111	0x3c024baf	0.007952615
112	0x3b91aa26	0.004445332
113	0x3c6e5087	0.014545566
114	0x3ac07f22	0.0014686326
115	0x3c4547ac	0.012041014
116	0xbcd0f532	-0.025507543
117	0xbcc30fef	-0.023811309
118	0xbd2f0287	-0.04272702
119	0xbd6eec2f	-0.05833071
120	0xbd251b89	-0.040309463
121	0xbd099dee	-0.03359788
122	0xbc963d13	-0.01833967
123	0xbc677096	-0.014125964
124	0xbcb7d102	-0.02243853
125	0xbcc9181d	-0.02454763
126	0xbc81eb9b	-0.015859416
127	0xbd8d27ab	-0.06892332
128	0xbbf7ea5c	-0.0075657796
129	0xbcc91ae6	-0.024548959
130	0x3c91fc2b	0.017820438
131	0xbcada3af	-0.021196214
132	0x3d43b244	0.04777743
133	0x3cd70ea5	0.0262521
134	0x3b4436fc	0.002994
135	0xbcb560b0	-0.02214083
136	0x3d936f80	0.07199001
137	0x3b0063b8	0.0019590687
138	0x3d466c00	0.04844284
139	0x3b972f0a	0.004613762
140	0xbd06e080	-0.032928944
141	0x3cc0913b	0.023506751
142	0x3d834abe	0.0641074
143	0x3dad235f	0.08454012
144	0x3cc4bd60	0.024016082
145	0x3c96e226	0.018418383
146	0x3d736c96	0.059429727
147	0xbccbcdd6	-0.024878424
148	0xbcdb65c3	-0.026781922
149	0x3cf380f8	0.029724583
150	0xbd676599	-0.056493375
151	0xbd3f891b	-0.046761613
152	0x3d3c8675	0.046026666
153	0x3d9bc9ad	0.07606826
154	0x3caaff5c	0.020873718
155	0xbbce9dd0	-0.006305434
156	0x3d6c51bc	0.057695135
157	0x3c0190e1	0.007908077
158	0xbd0ec939	-0.03485987
159	0x3d33f79a	0.043937303
160	0x3d229c35	0.039699752
161	0x3c877c05	0.01653863
162	0x3c389869	0.011266806
163	0x3c82edea	0.015982587
164	0x3d30f272	0.043199964
165	0xbd02ddc4	-0.031949773
166	0x3c2fc815	0.010728856
167	0xbc16630a	-0.009178886
168	0xbd8099c3	-0.06279328
169	0xbca2ae0c	-0.019858383
170	0x3cefe0fa	0.029282082
171	0x3cc805c6	0.024416815
172	0xbd2aca7c	-0.04169701
173	0xbd045697	-0.03230914
174	0x3d23a545	0.039952535
175	0xbde4c912	-0.111711636
176	0x3d7e960d	0.06215482
177	0xbcef5b43	-0.029218322
178	0x3dae6d55	0.08516947
179	0xbce616d4	-0.028087057
180	0x3b6a1aad	0.0035721466
181	0xbcbd8725	-0.023135731
182	0x3c0c204f	0.008552625
183	0xbd8815e3	-0.066447996
184	0x39e6cc36	0.00044021168
185	0xbcc87b21	-0.024472775
186	0xbc98d3cf	-0.018655686
187	0xbd1b5b05	-0.0379286
188	0xbbb42f38	-0.005498793
189	0xbd62371c	-0.055228338
190	0xbd62df2f	-0.055388626
191	0xbd47e320	-0.048800588
192	0xbc186076	-0.009300342
193	0x392fbaab	0.0001675884
194	0xbd01c381	-0.031680588
195	0xbc8bdfa4	-0.017074414
196	0xbc103d65	-0.0088037
197	0xbd040675	-0.03223272
198	0xbc8d375c	-0.017238311
199	0xbc755a32	-0.0149751175
200	0xbb706fd3	-0.0036687746
201	0xbc9bcddd	-0.019019062
202	0xbd02abb0	-0.031902015
203	0x3b89e5ae	0.004208288
204	0xbcb5f306	-0.02221061
205	0xbcc6f7e0	-0.024288118
206	0x3bcb95d5	0.0062129297
207	0x3d97c686	0.07410912
208	0x3d99c0a7	0.07507449
209	0x3d0a5f12	0.033782072
210	0x3d303476	0.04301878
211	0x3d1be6a2	0.038061745
212	0xbceb1e32	-0.028700922
213	0x3a0c9578	0.0005362849
214	0xbc4f4659	-0.0126510495
215	0xbcd68f31	-0.026191326
216	0xbc018cfc	-0.007907148
217	0xbc8e67b7	-0.01738344
218	0xbc8b6a9e	-0.017018612
219	0x3ca8e49b	0.02061682
220	0x3aecf1f6	0.0018077481
221	0xbc84c8cb	-0.016209027
222	0x3ce3d635	0.027812103
223	0x3b295b80	0.0025841892
224	0x3cd71eb4	0.026259758
225	0xbcaf3f4b	-0.021392485
226	0xbce247f1	-0.027622195
227	0x3d09dd3e	0.03365826
228	0x3c229322	0.0099227745
229	0xbcdbb7c1	-0.02682102
230	0x3ca3a55c	0.01997631
231	0xbbb9d7e4	-0.005671488
232	0x3d4f4fb1	0.05061311
233	0x3d43916c	0.047746107
234	0xbc9fd4a4	-0.019510575
235	0x3c052ffc	0.008129116
236	0xb958a70b	-0.00020661594
237	0x3b9b2e29	0.0047357273
238	0x3d626deb	0.055280607
239	0x3d0f5bc5	0.034999628
240	0xbd2e3659	-0.0425323
241	0x38fa8360	0.000119453995
242	0xbb1a15bf	-0.0023511497
243	0x3c3099a4	0.010778818
244	0x3bd092f3	0.006365174
245	0xbcb819c3	-0.022473222
246	0x3c075cda	0.008261884
247	0xbb86cb8c	-0.00411362
248	0xbb39d2f7	-0.0028354505
249	0x3c190dd0	0.009341672
250	0xbbbccc98	-0.005761694
251	0x3ca9a37a	0.020707835
252	0x3d667709	0.056265865
253	0x3d3bcfb7	0.04585239
254	0x3d47d10f	0.04878336
255	0xbc8135fb	-0.01577281

lastresc.weight f4 [1, 64, 3, 3]
0	0x3ee69187	0.45032904
1	0x3e33f6be	0.17574593
2	0xbe5e2348	-0.21693146
3	0x3e5f4a0b	0.21805589
4	0xbe74c80d	-0.23904438
5	0x3eb97bab	0.36227164
6	0xbf57351f	-0.8406543
7	0xbc575609	-0.013143071
8	0xbf0ca1b1	-0.5493422
9	0xbeb9b4a6	-0.36270636
10	0xbd435e66	-0.047697447
11	0x3eda81b7	0.4267709
12	0xbe6e8bb6	-0.23295483
13	0x3f350b01	0.70719916
14	0x3eb8c9c8	0.36091447
15	0xbf3226af	-0.69590276
16	0x3e74c65f	0.23903798
17	0x3e7f9134	0.24957734
18	0x3e3ad520	0.18245363
19	0xbd3aa4c4	-0.04556729
20	0x3d8ea410	0.06964886
21	0x3c343dda	0.011001075
22	0xbee21e33	-0.44163665
23	0xbf55c53b	-0.83504075
24	0xbea5e368	-0.3240006
25	0x3e055ee6	0.13024482
26	0xbe841e57	-0.25804397
27	0x3e7cecea	0.2469975
28	0xbeb6609c	-0.35620582
29	0xbdaf6fa7	-0.08566218
30	0x3dfca492	0.12336077
31	0xbdf62569	-0.12018854
32	0x3da1f54f	0.07908117
33	0x3ecfad26	0.4056179
34	0x3e26db10	0.16294503
35	0x3e5bfbf4	0.21482831
36	0x3f279776	0.65465486
37	0xbf1c6469	-0.61090714
38	0xbe32a3b3	-0.17445259
39	0x3f298c70	0.66229916
40	0x3d6a069b	0.057135206
41	0xbdd6e836	-0.104935095
42	0x3e7fcfd0	0.24981618
43	0x3dcd6fe8	0.1003111
44	0xbec14656	-0.37748975
45	0x3d91790d	0.07103167
46	0xbe3db596	-0.18526301
47	0xbe067c40	-0.13133335
48	0xbe351565	-0.17683943
49	0xbe020239	-0.1269616
50	0x3e725230	0.23664165
51	0x3ea5b178	0.3236196
52	0xbebc26c0	-0.36748314
53	0xbef474da	-0.477454
54	0x3e907839	0.28216723
55	0xbf06b8d4	-0.52625775
56	0xbe67fc20	-0.22654772
57	0xbea5ce08	-0.32383752
58	0xbdee35a4	-0.11631325
59	0xbe2d7866	-0.1694046
60	0xbeb14095	-0.34619585
61	0x3eef08d2	0.46686417
62	0xbef47e6d	-0.47752705
63	0x3f1e8a3c	0.6192968
64	0x3e01c4ba	0.12672701
65	0xbbe40903	-0.006959082
66	0x3dc9a6c6	0.09846263
67	0x3ece7235	0.40321508
68	0x3d109fc9	0.035308633
69	0x3eb656ed	0.35613194
70	0x3ee944e3	0.4556037
71	0xbf0e0f01	-0.55491644
72	0x3e65c79d	0.22439428
73	0xbe85d6f8	-0.2614057
74	0xbeaa423c	-0.33253658
75	0x3ef5c4a4	0.48001587
76	0x3eb0a3cb	0.34499964
77	0x3d64a109	0.055817638
78	0x3e374a27	0.1789938
79	0x3e8c282d	0.27374402
80	0xbd73c51a	-0.059514143
81	0x3e6ee32a	0.23328844
82	0xbe949cc4	-0.29025853
83	0x3eb25e4e	0.34837574
84	0xbdc22dd0	-0.09481394
85	0x3eb72072	0.3576694
86	0xbb3a0bf1	-0.0028388465
87	0x3e46fbe5	0.19432028
88	0x3f2f802d	0.68554956
89	0x3d06b718	0.032889456
90	0x3d35d730	0.044394672
91	0x3ee1ec1f	0.4412546
92	0x3d3566ce	0.044287495
93	0xbd8ab75d	-0.06773255
94	0xbf0a523c	-0.5403173
95	0xbdab39a7	-0.08360606
96	0xbe3ce020	-0.18444872
97	0x3d2d77ce	0.042350583
98	0xbdd5cb24	-0.104391366
99	0xbed66f7e	-0.41881937
100	0x3f1d6e39	0.6149631
101	0xbdc8f6ee	-0.09812723
102	0xbf1ef890	-0.62098026
103	0xbe9a23e6	-0.30105513
104	0xbe8619ad	-0.26191464
105	0x3bc04c8c	0.0058685
106	0x3ed65971	0.41865113
107	0xbe06d30e	-0.13166448
108	0xbd535972	-0.051598974
109	0xbf012221	-0.504427
110	0xbf01f3c4	-0.5076258
111	0xbc0c0361	-0.0085457275
112	0xbe44ac01	-0.1920624
113	0xbec69c72	-0.38791233
114	0xbeb89903	-0.3605424
115	0xbe4fa583	-0.20277981
116	0x3ea2f02d	0.31823865
117	0xb9c0ed80	-0.00036798045
118	0x3ab7a028	0.0014009522
119	0x3eb2274c	0.34795606
120	0xbd5ca9df	-0.05387294
121	0xbbb79693	-0.0056026666
122	0x3eb106a1	0.3457537
123	0xbe9ee8ab	-0.31036887
124	0x3cdc45b8	0.026888713
125	0x3eadba39	0.3393114
126	0x3f149804	0.5804446
127	0x3ea34fd5	0.31896845
128	0xbed0d37d	-0.40786353
129	0x3f0e89b5	0.55678874
130	0x3f22d275	0.6360238
131	0xbe8f1ee3	-0.27953252
132	0xbe708780	-0.23489189
133	0x3e29ea22	0.16593221
134	0x3ecadfa2	0.39623743
135	0xbe04520d	-0.12921925
136	0x3da56859	0.08076543
137	0x3eb539f2	0.3539577
138	0xbec84432	-0.3911453
139	0x3ef9ca6a	0.48787242
140	0xbd81fec5	-0.063474216
141	0x3ee31e0a	0.44358855
142	0xbdff6150	-0.12469733
143	0x3d89b444	0.06723836
144	0xbeeb3c8a	-0.45944625
145	0x3cd580df	0.026062427
146	0x3de9fe3d	0.11425445
147	0xbde60073	-0.112305544
148	0x3d06f7ea	0.032951273
149	0xbe986e7c	-0.29771793
150	0x3d8bed5e	0.068323836
151	0xbe513cb2	-0.2043331
152	0x3d1bff67	0.038085368
153	0x3e8dcb2e	0.27694076
154	0x3e25573e	0.16146562
155	0x3f352ff8	0.7077632
156	0x3f1ef90e	0.6209878
157	0x3db96d2e	0.090540275
158	0x3eabd79b	0.3356293
159	0xbd6f864b	-0.05847768
160	0xbe011913	-0.12607221
161	0xbdcbb78c	-0.09947118
162	0xbc296de4	-0.010341141
163	0x3ecd4785	0.40093628
164	0x3de65550	0.11246741
165	0x3e689dad	0.22716399
166	0xbec03890	-0.37543154
167	0xbe311251	-0.17292143
168	0x3e3622dc	0.17786735
169	0x3e07d926	0.1326643
170	0x3df29b77	0.11846059
171	0x3e45d054	0.19317752
172	0x3ec44b42	0.38338667
173	0xbe9ad66e	-0.30241722
174	0x3e3af5a8	0.18257773
175	0x3e5b50b8	0.2141751
176	0xbe5e0636	-0.21682057
177	0x3e49ca66	0.19706115
178	0x3e7a76f1	0.24459435
179	0x3e9843ba	0.2973917
180	0x3e8c2fa8	0.2738011
181	0xbe3340a8	-0.17505133
182	0x3e569252	0.20954254
183	0x3f2e3f5d	0.68065435
184	0xbec0a057	-0.3762233
185	0xbed79649	-0.42106846
186	0xbeb7a8f9	-0.35871103
187	0xbf3cfe4b	-0.7382552
188	0x3d44c77a	0.0480418
189	0x3f4d4de6	0.8019699
190	0xbddfee93	-0.10934176
191	0xbedf046d	-0.43558064
192	0xbdd82201	-0.10553361
193	0x3eb44bac	0.35213983
194	0x3e8985e2	0.26859957
195	0x3e820da3	0.2540103
196	0x3e8784f9	0.26468638
197	0x3cc7460d	0.024325395
198	0xbeca3c91	-0.39499334
199	0xbeaabd5a	-0.3334759
200	0x3e4001c7	0.18750678
201	0xbed854dd	-0.42252246
202	0xbd4fa5ec	-0.050695345
203	0xbee59237	-0.44838116
204	0x3dbb2bbd	0.09139202
205	0xbda0869e	-0.07838176
206	0xbeb63370	-0.3558612
207	0xbe394394	-0.18092185
208	0x3e3fb8d9	0.18722858
209	0x3d9f4373	0.07776537
210	0xbed4b994	-0.41547835
211	0xbf0c0c31	-0.547061
212	0xbe20fd7d	-0.15721698
213	0x3e754032	0.2395027
214	0x3d471e40	0.048612833
215	0xbefa87ee	-0.4893183
216	0xbf02a5a8	-0.5103402
217	0x3e31899b	0.17337649
218	0x3f197852	0.5994922
219	0x3e6decb3	0.23234825
220	0x3d9d8f5f	0.076933615
221	0xbf25333f	-0.6453132
222	0x3eb33e98	0.35008693
223	0xbca69df8	-0.020338997
224	0xbf1718c8	-0.5902219
225	0x3d45cc50	0.04829055
226	0x3d0f4bb8	0.03498432
227	0x3c16d95e	0.009207098
228	0xbe98f95e	-0.29877752
229	0x3ebecff8	0.37268043
230	0x3e0bb9bf	0.13645075
231	0xbf7c9f0a	-0.98680174
232	0xbeb745af	-0.35795352
233	0xbe12427e	-0.14283177
234	0xbc2e8ccb	-0.010653685
235	0xbec90b90	-0.39266634
236	0xbb220945	-0.0024724763
237	0x3e0202a3	0.12696318
238	0x3ea9dac5	0.3317472
239	0x3e0573fc	0.13032526
240	0xbe05da13	-0.1307147
241	0xbe878b4c	-0.26473463
242	0x3eeb556e	0.45963615
243	0xbf498da1	-0.78731734
244	0x3f0a1929	0.5394464
245	0x3ed9c827	0.42535517
246	0xbae2f1f4	-0.0017314539
247	0x3e750ba2	0.23930219
248	0xbefbbe7c	-0.49168766
249	0x3ea54b55	0.32284036
250	0xbed966bb	-0.4246119
251	0xbe3bfefe	-0.1835899
252	0xbe9eafb1	-0.30993417
253	0x3d98610c	0.07440385
254	0x3d7779d6	0.060418926
255	0x3eb6fd5d	0.35740176
