CSNet96_10.pt (torch_old, 989183 bytes, 5 tensors)

cssample.weight f4 [102, 1, 32, 32]
00000000: 0665 e23a 1377 8a3b bddb 363c 7864 813c
00000010: 6864 aa3c e895 1c3c c6eb cbbb 175e e1bc
00000020: 3027 f7bc da3b cebc be1e 6bbc 1d8e a03b
00000030: af1f cf3c 5f44 e83c 241c d13c 699d 113c
00000040: 8591 24bc d9a2 cbbc 64aa d9bc 70a8 1ebd
00000050: 667f 01bd bdc1 d4bc d5a1 c1bc 70f1 18bc
00000060: 97f7 0dba 8cf2 f53b ff67 1e3c 2e6c 1b3c
00000070: ad25 113c 9d8c 503b 635d 5c3a bc43 453b
00000080: 4a90 7b3b 0144 d33b 1713 bb3b fd77 8e3c
00000090: cf29 933c 4d4e 463c 55e6 50bc 6a12 c2bc
000000a0: 5bb6 19bd ba7a fbbc 9953 8abc c42d e43b
000000b0: 43b5 c83c 45ab 113d 60c6 df3c f407 033c
000000c0: 0428 73bc d481 05bd 5d00 22bd 0305 25bd
000000d0: 506c 11bd 0ef1 01bd 97b8 d0bc 024d 47bc
000000e0: 652e 2f3b 44c8 393c 071d ed3b 6f85 413b
000000f0: dafd 913b 2799 553b 0e7b e13a 92a2 28bb
00000100: cd54 083c 9122 283c 46d6 7a3c 30ff 793c
00000110: eb51 9b3c 2b22 283c b471 5dbb e2f3 babc
00000120: 523f 0ebd bd98 11bd 306a cdbc 76e8 f2ba
00000130: be35 993c 46a4 ed3c 04c1 b23c cabd d63b
00000140: f084 6abb b27b a7bc 0d7b ebbc 5495 9cbc
00000150: a6ac b7bc 69be c7bc 3baf acbc 6005 07bc
00000160: c96e 9f38 991a bcba 43b2 2a3b b62a efbb
00000170: d2f7 51bc 2511 3cbc 87ff 4dbb 6ade 3fbc
00000180: ec3f b43c c5f3 a83c d635 873c 5a6b 563c
00000190: 63db 3e3c 5919 113c c077 8dbb 4113 34bc
000001a0: 4ec3 59bc 85ea aebc 5cd7 dfbc 899c a4bc
000001b0: 3a74 d5bb eb7e 683b a2ba f53b e356 e13b
000001c0: 3802 a0b9 ce16 23bb 94da 1d3b 58d7 ea3b
000001d0: 0539 f73b 8fb5 5e3b bd91 babb 9b59 74bb
000001e0: 0881 ba3b 3f28 adbb 7b04 85bc 1cf6 acbc
000001f0: f9e4 cebc c8fe 7fbc bcc4 16bc ccac dabb
00000200: 566b 023d 1d66 0c3d e24a d53c e14d df3b
00000210: 4ab8 a8bb 38fc acbb d2ee 953b 6f9e f33b
00000220: 4fb2 dc3b 382e c3bb cfa8 a1bc 9a22 0ebd
00000230: fea3 e7bc 4077 9cbc 7331 e3bb 4331 2eba
00000240: 1c98 123c 9986 9d3c 4b6d d73c 5f2f 113d
00000250: ad08 063d 93e9 973c 7ce7 3b3c d4ec 143c
00000260: 97d1 233c 602c de3a 0253 27bc 202f b1bc
00000270: 8c33 adbc 052b 7cbc 8a8f 8abb a0c4 8dbb
00000280: d27e 153d b605 1b3d 0d56 a73c f89d 74bb
00000290: dc46 96bc b7a8 c7bc dd29 8d3a 5cd4 293c
000002a0: 3fea 863c 6edf 3d3b 7757 dbbc 24c4 4cbd
000002b0: 2454 40bd bf61 02bd 1345 62bc 5cf7 853a
000002c0: bf71 e23b 17cf 823c 9375 e43c ea97 063d
000002d0: ffa1 063d 8aab b33c bc84 5a3c a445 713c
000002e0: ea0b 913c 0246 8b3c 85fa 143b 5522 0abc
000002f0: 8041 d9bb d2e9 5839 64dc a53b 9a39 c83b
00000300: 64af c43c a426 f13c 95d6 243c 0a4d aebc
00000310: 999c 17bd 03dc 16bd 10ce 83bc ba36 b63a
00000320: e057 493c f465 5bbb b0dc e8bc a40e 47bd
00000330: aa0a 46bd 5936 04bd 805e 13bc 1a3e 5f3b
00000340: 205e 293c 3deb 023c de71 333c 0d55 a63c
00000350: 2e2d 753c a844 48ba 35e2 c8bb 4332 a63b
00000360: c8ca a43c 55ff cc3c ad97 af3c e2f4 1c3c
00000370: c840 a23b ce30 2e3c 6f84 2c3c f9f5 563b
00000380: 6764 863c 788b d23c 7230 ca39 6165 f6bc
00000390: a7bd 3dbd ff84 35bd 1113 fabc fefd f0bb
000003a0: 19ea 773b 85ac 3bbc 04fc 01bd 1dad 2abd
000003b0: 9d26 f2bc 9f1b e9bb de28 be3b 09bc 8b3c
000003c0: 98d9 f63b fe64 84bb e70c 89bb 2487 2abc
000003d0: 4e35 99bc 81b9 dcbc d121 bfbc 0f58 5bbc
000003e0: 384a 033c cc9f cb3c 324f a43c 44b7 433c
000003f0: 5e96 86ba 4002 3fb9 dc73 b33a 5bef 24bb
0.0017272539 0.0042256205 0.011160788 0.015794978 0.02079983 0.009557225 -0.0062231747 -0.027510686
-0.030170053 -0.025175024 -0.014350591 0.0048997537 0.025283663 0.028352914 0.025526114 0.008887627
-0.01004446 -0.024857925 -0.026570506 -0.038734853 -0.031615637 -0.025971288 -0.023636738 -0.009334907
-0.0005415617 0.0075057205 0.009668349 0.009486241 0.00885908 0.0031822093 0.00084062497 0.0030100187
0.0038385564 0.0064473157 0.005709063 0.0173912 0.017964272 0.012103629 -0.012750228 -0.023690421
-0.037527423 -0.030698169 -0.016885566 0.0069634635 0.024500495 0.035563726 0.027316272 0.007997502
-0.014841083 -0.032594517 -0.039551128 -0.040287983 -0.035503685 -0.03172403 -0.025478644 -0.012164356
0.0026730534 0.011339251 0.0072361263 0.0029528996 0.0044553103 0.0032592507 0.0017202811 -0.0025731665
0.008320999 0.0102621475 0.015309876 0.015258595 0.01895996 0.0102620525 -0.0033789696 -0.02282137
-0.034728356 -0.035546053 -0.025075048 -0.0018532414 0.018702384 0.029008996 0.021820553 0.0065533863
-0.0035784803 -0.020444725 -0.028745199 -0.019114174 -0.022421192 -0.024382787 -0.02107965 -0.008241028
7.602346e-05 -0.0014351188 0.0026046194 -0.0072987927 -0.012815433 -0.011478697 -0.0031432824 -0.0117107425
0.022003137 0.02062405 0.016505163 0.013087118 0.011648986 0.008856141 -0.004317254 -0.010990919
-0.013291193 -0.021352062 -0.027324371 -0.020094173 -0.0065140994 0.003547604 0.007499055 0.006876813
-0.0003051923 -0.0024885419 0.0024086582 0.0071667843 0.007544639 0.003398273 -0.005693643 -0.0037284854
0.0056916513 -0.0052843387 -0.016237488 -0.021113448 -0.025255667 -0.015624709 -0.009202179 -0.006673431
0.031840645 0.03427707 0.026036683 0.006814704 -0.005148922 -0.0052790903 0.0045755887 0.0074346582
0.006735123 -0.0059564374 -0.019733815 -0.034700967 -0.02827644 -0.019099832 -0.006933385 -0.0006644914
0.0089473985 0.01922922 0.026297232 0.035445567 0.032723118 0.018543994 0.011468764 0.009089667
0.009998701 0.0016950481 -0.010212662 -0.021628916 -0.021142744 -0.015391116 -0.004228537 -0.004326418
0.0364979 0.037847243 0.020426774 -0.0037325602 -0.018344335 -0.024372442 0.0010769923 0.010365572
0.01646912 0.0028972286 -0.026775105 -0.04999174 -0.046955243 -0.0318315 -0.013810414 0.0010220814
0.0069105322 0.015967889 0.027888095 0.03285972 0.032869335 0.021932382 0.01333731 0.014726076
0.017705876 0.017001156 0.002273233 -0.008431037 -0.0066301227 0.0002068647 0.005061673 0.0061103823
0.024009414 0.02943737 0.010060926 -0.02127697 -0.037014578 -0.036830913 -0.01608947 0.0013901808
0.012289017 -0.0033477517 -0.028425545 -0.048597947 -0.048350014 -0.032278392 -0.0089946985 0.0034064115
0.010337383 0.0079906555 0.010952441 0.020304227 0.014964385 -0.0007639625 -0.0061304816 0.0050719096
0.020116225 0.025024096 0.02143463 0.009579869 0.00495157 0.010631753 0.0105296215 0.003280042
0.016405297 0.02570127 0.00038564537 -0.030077638 -0.046323445 -0.044316288 -0.03052667 -0.007354497
0.0037828742 -0.011454706 -0.03173448 -0.041669 -0.029559428 -0.0071138884 0.0058032116 0.017057436
0.0075332634 -0.0040403595 -0.0041824463 -0.010408197 -0.018702175 -0.026943924 -0.023331555 -0.013387694
0.008013301 0.02485647 0.020057295 0.011945549 -0.0010268202 -0.00018216018 0.0013691145 -0.002516708

initresc.weight f4 [1024, 102, 1, 1]
00000000: fdc7 b4bb 2fda 333d 0bdb 9f3b e299 d7bb
00000010: 900a fc3b ac8f 08bd 9e60 83bd 1098 0fbc
00000020: c76d cdbb d1a4 98bb ba85 953c 44be efbb
00000030: baa9 cf3c de8a 28bd 66f5 85bb b17b 893a
00000040: 9e2b dbbc 7034 60bc 6cb4 103d 7c4a 323d
00000050: 5151 4cbd e22f c63c 2250 8cba b5b3 40bd
00000060: c13f 93bb deef 97bc 46be 983b 97d7 10bc
00000070: 01cc bc3a 307c febc ecf6 723c e807 83bd
00000080: c0c7 123b 9855 f33c 9751 163c d5a0 893c
00000090: 7a54 05bd 99e0 0a3d 4f1a 313d 9173 2fbc
000000a0: 42f5 92bc d695 93bb 8415 223d aa35 20bb
000000b0: 1d69 16bc 70a2 2ebd d41c 89bc cd81 dc39
000000c0: 3405 1abc 790f 013d bbce f63c c8cc ee3b
000000d0: df31 cf39 ef0a 33bd 84aa a0bc c835 123d
000000e0: c098 273c aa70 81bb f133 553b 90c3 b93b
000000f0: ea89 413c 23fc 1a3d 4f1a 84bb 2721 c4bc
00000100: b7eb 903a 3751 1e3d 6e11 ce3c 98ae 2b3a
00000110: 02b8 9c3c 32cc bcbc 0e6f e13c 7881 3d3a
00000120: ced6 e7bc b0da 74bd 5bd4 12bb ec95 48bc
00000130: 526c d73c 2fad 323d 6adc 87bd 4c8b ae3c
00000140: 8105 22bc 0008 283c f60b 033d 0cff 2bbc
00000150: e621 abbc 4292 1abd 9bfb 9bbb baa7 febc
00000160: 5ad1 be3c 36a1 33bc ecf1 31bc 0b8f 1ebd
00000170: 5ed4 90ba ae30 a53c ddce 1c3c eb57 56bd
00000180: 3d1d e63b 1f59 8f3c f0f9 20bc 68e1 12bd
00000190: e433 0b3d 9c9a 1fbc 4f1f 2539 2c61 b03c
000001a0: 9973 d7bc 4a3f 8dbc 6b78 a63a 18b7 bdbc
000001b0: 7ef6 47bd e6d5 003c 6b58 e83b 4682 5cba
000001c0: 7d72 d93c 92cb 803b 2027 3b3c e2ef 06bd
000001d0: 6919 91b8 7211 cbbb 28c0 8cbc ee19 b6bb
000001e0: 0cd2 ac3c 4fd9 093d 83af 2dbd 78c2 273c
000001f0: e879 ba3c 6f7e 0dbd 1015 fbb9 6b92 4ebc
00000200: 0385 c63b fec6 d4bb bf02 123c 1b16 59bc
00000210: 0913 cbbc a087 26bd 74c2 a339 f501 2c3d
00000220: f220 023d 9398 513b 5ac5 d4bc d6f3 fe3c
00000230: 7090 843c 4f58 34bb 6b94 dabc 90c1 2ebd
00000240: 86ce ac3c e39d fdbb 3348 71bc 718a 8cbc
00000250: e2eb 03bc 6f22 933b 4ecb a23a cc03 323c
00000260: 9646 bc3c c1ce 33ba 5312 25bb 7bfe 8ebc
00000270: c4cb febc 84be 113c 6640 78bb 5eff e63a
00000280: a144 523a 5dca 4d3c d22d 213a 2da7 dc3c
00000290: ebda 3bbb af88 08bd 0ae9 debb 4c85 203d
000002a0: 3902 2d3c 2a34 063c 325c 9b3b c97c b6bc
000002b0: 84f4 cf3c bf90 ea3a 8219 80bc 465b 2cbd
000002c0: 9989 0abc 4635 abbb 5260 a73c 8f4d 123d
000002d0: e34e 12bd f977 2d3c f71c 96bc 2fac 523c
000002e0: a9cf ed3c e657 3e3c ef94 85bb 0faa 043b
000002f0: d515 3dbb af4f 83bc e570 b03c e609 86bc
00000300: 671b a7bc 558c d5bc 0221 81bc 21a5 303c
00000310: ce77 573c bb8c 26bd faa9 273c a2ab ed3b
00000320: e1cf 0b3c 6d68 afbc c76c ab3c 30b7 81ba
00000330: a458 a4bb d5b0 3c3c 5856 f33b 2f35 97bb
00000340: 0aca 233b 504e 65bd 638d 73bd 0d72 50bb
00000350: 81dc ccbb a3c9 fdbb 566d 153d 298f 133c
00000360: 6089 d03c 28bc 84bc c0ba 02bc df3e bbbc
00000370: 5faf b6bc 0708 483b 6a00 843c e180 9e3c
00000380: 2a81 93bc a51b ec3b def3 373c 0bff c7bb
00000390: 9c95 fd3a 7ad8 62bc b6bc d5bb 1d44 5ebc
000003a0: 3e5c 6e3c 1ac5 cebb b072 f4bc 1139 8ebc
000003b0: adce 1dbc 3314 b03a e08b 113a 5efe 883c
000003c0: 5238 d4bc b82f d33c edff c53c 609d b5bc
000003d0: 80dd 60bc a809 dc3b f89f 0ab9 131e 45bc
000003e0: 37b5 5fbc 79e7 18bd 55b7 c73a c048 6cbc
000003f0: b805 e63a ff90 3b3c 30da d53c 60d9 0a3b
-0.0055170045 0.043909248 0.004878407 -0.0065796236 0.007691689 -0.03334014 -0.06414913 -0.008764282
-0.00626919 -0.0046583195 0.018252242 -0.0073163826 0.025349487 -0.04114806 -0.0040880917 0.0010489133
-0.026754197 -0.013684377 0.035328314 0.043528065 -0.049882237 0.024192754 -0.0010705034 -0.047046382
-0.004493684 -0.018546995 0.0046613542 -0.008840463 0.001440406 -0.031065077 0.014829379 -0.06397992
0.0022396892 0.0297039 0.009174726 0.016800324 -0.032551266 0.0339056 0.04323798 -0.0107087055
-0.017939214 -0.004503946 0.0395713 -0.0024446049 -0.009180334 -0.04263538 -0.01673738 0.0004205838
-0.009400655 0.031508896 0.030127874 0.0072875954 0.00039519274 -0.0437116 -0.019612558 0.03569582
0.0102292895 -0.003950198 0.003253218 0.005669065 0.011812666 0.037838113 -0.0040314565 -0.02394159
0.0011056577 0.03865167 0.025154795 0.0006549149 0.01913071 -0.023046587 0.027518775 0.000722907
-0.028300669 -0.05977887 -0.0022404406 -0.012242775 0.026296768 0.043622192 -0.066338375 0.021306656
-0.009889008 0.010255814 0.03199383 -0.01049782 -0.020890187 -0.03773714 -0.0047602183 -0.031085838
0.023293186 -0.010963729 -0.010860901 -0.038710635 -0.0011049618 0.020164814 0.009570804 -0.05232994
0.0070225284 0.017498551 -0.009825215 -0.035859495 0.033985034 -0.009741452 0.0001574729 0.02153071
-0.026300238 -0.017242093 0.0012700682 -0.023158595 -0.048819058 0.007863497 0.0070906184 -0.0008411746
0.02654385 0.0039305175 0.011422902 -0.032943614 -6.918872e-05 -0.006197148 -0.017181471 -0.0055572903
0.021096252 0.033654507 -0.04240371 0.010239236 0.022763208 -0.034544405 -0.00047890143 -0.012608151
0.0060583367 -0.0064934483 0.0089117875 -0.013249899 -0.02478935 -0.040656686 0.00031234662 0.041994054
0.0317697 0.003198181 -0.02597301 0.03112213 0.016182154 -0.0027518456 -0.0266821 -0.042665064
0.021094572 -0.007739769 -0.014726686 -0.017155858 -0.008051844 0.004490189 0.0012420209 0.010865163
0.022982877 -0.0006859117 -0.0025187924 -0.01745533 -0.031103022 0.00889552 -0.0037880181 0.0017623713
0.0008021091 0.012560454 0.00061484904 0.026935184 -0.002866442 -0.033333477 -0.0068026828 0.03918962
0.010559612 0.008191148 0.004741215 -0.0222763 0.025385149 0.0017895921 -0.015637163 -0.042079233
-0.008455657 -0.0052248565 0.020431671 0.035718497 -0.035719763 0.010587686 -0.018324358 0.012858435
0.029029684 0.011617636 -0.004076592 0.0020242964 -0.0028852124 -0.016029207 0.021538207 -0.016362142
-0.020398809 -0.026067892 -0.01576281 0.010781557 0.013151122 -0.040661555 0.010233397 0.0072531262
0.008533449 -0.021412099 0.020925893 -0.0009896513 -0.0050154496 0.011516769 0.0074260645 -0.0046144943
0.002499225 -0.055982888 -0.05946101 -0.003180626 -0.006251872 -0.0077449842 0.036481224 0.0090063
0.02545613 -0.016203001 -0.007979095 -0.022857128 -0.02230042 0.0030522363 0.016113479 0.019348564
-0.018005926 0.007205444 0.011227576 -0.0061034015 0.0019346955 -0.013845557 -0.0065227402 -0.013566044
0.014548359 -0.0063101174 -0.029839844 -0.017361196 -0.009631795 0.0013433754 0.0005552154 0.016722854
-0.025905762 0.02577959 0.024169886 -0.022169769 -0.013724685 0.0067150183 -0.00013220299 -0.012031096
-0.013654045 -0.037330125 0.0015237132 -0.014421642 0.0017549312 0.011448144 0.026105016 0.0021186695

firstresc.weight f4 [64, 1, 3, 3]
00000000: 3f1d 07bc 8390 383d 4912 1abb 8e01 17bd
00000010: 1f32 773d 8966 dc3c 2f64 5abd 282e 8dbb
00000020: 2120 a2bc 3490 cd3d e43a c8bc 0c02 1a3d
00000030: bec1 473d 41d7 d5bc 4d26 9cbc a19a 47bb
00000040: ce14 8abd 5044 22bd 8d4e ccbc 7e6b 27bc
00000050: 6e2f 1abd 3bab 103c 0a14 d33d 5ccd 513c
00000060: bd00 29bd 5224 69bc 5784 043b 6ee3 5abc
00000070: 18d6 a1bc 75cd 14bb ff6b 583d 281f 6e3c
00000080: 053b 6a3c db63 353b f366 27bd e7eb 2fbc
00000090: 1a53 07bc 9073 fbbb 953d 0e3e b446 20bc
000000a0: 6712 16bd a1d6 103d fcd3 22bd eed2 55bd
000000b0: b5bc 8cbc 71a6 943c cd7c d33c cd6b 253d
000000c0: 08e0 7fbd fdf0 2fbd ab32 e13c 7133 3abd
000000d0: a937 a3bc ae4c 283d 425c 27bd 2a98 05bd
000000e0: 3a5a 24bc 541a a8bb 3344 113c b49d fe3c
000000f0: c5cb 843b 88b6 903c d7af ce3c fb7c 0cbd
00000100: dd2b 01bd 3e04 22bc 8482 1abd 5065 e2bc
00000110: fe8b f73b fd81 f73c bcf3 703d 1ba6 3e3d
00000120: c9f6 01bd 5b0b b0bd c862 153d 2922 3ebd
00000130: fb69 db3b 6797 b73d ee63 f8bc 8f23 1e3d
00000140: f851 d43c 2813 45bc 033b 8ebc 8e14 97bb
00000150: afaa 86bc 2db9 a2ba 1df4 babb b631 773b
00000160: 6ece 113d 1ad7 4dbc 34dd d43d 7ac2 a03d
00000170: a3b7 443c 26d8 103d 329f d93b fc84 80bd
00000180: 65d3 42bc 17fa 83bd 7b05 bdbd 7394 af3d
00000190: 3026 353d 5cff d83c c706 debb ff91 0b3d
000001a0: eb61 c0bc 9d92 87bd b3d7 07bd 3a7a 6dbd
000001b0: 57c1 5eba caa9 733b 2173 fa3b 39d0 d83b
000001c0: 9330 1bbc 0ac3 35bb f2bb 47ba 87d9 39bc
000001d0: 055d 58bb d133 16bc 2450 34bd b5c8 cbbd
000001e0: 9dfc a13d 6b4f 0ebc 52c9 40bd 3611 fe3d
000001f0: 67c4 223c 6fec 9d3b cace 0f3d 82fe 49bb
00000200: 46af d8bd 197b 453c d760 8f3c 1f87 73bd
00000210: 00b9 463d 35c3 6e3d 7c27 b93b a364 82bd
00000220: 7953 813c 2ae3 263c 0ef5 6bbd c2eb 4dbd
00000230: 1e1a 0c3d eb40 7dbb 0d5c de3c 5a19 af3d
00000240: 1f02 89bc 2493 3fbd a6c4 bbbb c0e0 1a3c
00000250: 6d44 51bd 7d51 26bc eec3 723d 968e a43c
00000260: dfa6 0c3d f4ac 383d 336f 643c b00f d3bc
00000270: ee4f 143d b450 06bc 1716 30bd 4a18 3cbb
00000280: 01ca 6dbc 1b91 5bbc 5206 963c abce b93c
00000290: e924 d93b 183c 1e3d f160 fe3b 5d5b 12bd
000002a0: b4a0 963c 82f8 b5ba f5b5 56bd 5d6a c8bc
000002b0: 1b24 803b 7efd 723d fb2c 1bbd 0154 17bd
000002c0: d891 a13c 260f 553c fe72 e4bc 2ec6 c33c
000002d0: 10e1 1dbd f074 ec3b c66b 843d f4b8 413b
000002e0: 4fbf 283d 400b a93d 3637 febd 5e57 96bd
000002f0: 6ddd 1d3d b193 e43a 67db 463d d016 043d
00000300: 7ec4 5abc 9fea 953c 7897 e13c a25a 1fbd
00000310: fbd5 4abd 2faf c0bc b5f7 72bc a546 6dbd
00000320: 6fb3 32bd c3bd 813c fc91 3f3d 240f b23a
00000330: 3d2c 9c3c e9c9 273d e53d 49bc aa0b b4bc
00000340: 9168 8d3c 648a 133b bcbf 01bd 8f2f 923c
00000350: 91c3 463d 2071 0ebd da7e 4ebc 02cf 583c
00000360: 779a 873d 30b7 5d3d 7b1d a03c b7d5 83bc
00000370: 0dc6 53bc c75d be3c dfbb 55bd cf0e b9bd
00000380: be69 cb3b b487 ebbc 56d8 f2bc a449 dcbc
00000390: 9d29 de3c ad03 123d c7c0 a13b ca19 b33c
000003a0: d89d f53c 9744 a0bc cac2 80bc 0536 2b3d
000003b0: 3c1c 903d f02a 03bd 2d11 5cbb f3bf 9a3c
000003c0: 0b86 c1bc 7936 82bd c703 e0ba c927 303d
000003d0: 6534 b7bc a97f 5bbc 64fe 013d b4db a7bd
000003e0: ee2b b4bc d2ac a7bc 047f ae3c 9638 823d
000003f0: b065 823d 507f 0e3d 7904 a6bb 1029 983d
-0.008246719 0.045059692 -0.0023509434 -0.036866717 0.060350534 0.026904361 -0.0533182 -0.004308481
-0.01979071 0.1003727 -0.024442144 0.03759961 0.04876875 -0.026103618 -0.019061232 -0.0030457156
-0.067422494 -0.03961593 -0.0249398 -0.010218499 -0.03764289 0.008829887 0.103065565 0.012805309
-0.04126047 -0.014229851 0.0020220482 -0.0133598875 -0.019755408 -0.002270547 0.052837368 0.014533795
0.014296298 0.0027677927 -0.040869664 -0.010737396 -0.008259559 -0.0076736882 0.13890679 -0.009782482
-0.036638644 0.035360936 -0.039752945 -0.05220311 -0.017179826 0.018145772 0.025816346 0.04038601
-0.062469512 -0.042954434 0.02748998 -0.045459215 -0.019924002 0.041088752 -0.04085947 -0.032615818
-0.010031277 -0.0051300917 0.008866358 0.031081058 0.0040526115 0.017665163 0.025230331 -0.03429888
-0.031535972 -0.009888707 -0.037722126 -0.0276362 0.00755453 0.03021335 0.058826193 0.04654513
-0.031729493 -0.08595916 0.03647116 -0.046419296 0.0066959835 0.089644246 -0.030321088 0.03860813
0.025917992 -0.012028493 -0.017362123 -0.0046106046 -0.01643881 -0.0012414806 -0.00570537 0.003771884
0.035597257 -0.012563491 0.10393754 0.078495935 0.012006673 0.035362385 0.006641292 -0.06275365
-0.011891221 -0.06444185 -0.09229561 0.08573236 0.04422587 0.026488952 -0.0067757103 0.03407478
-0.02348419 -0.06619761 -0.03316469 -0.057977892 -0.0008497438 0.003718006 0.007643119 0.006616619
-0.00947203 -0.002773466 -0.00076192536 -0.0113433665 -0.0033014428 -0.009167627 -0.04402174 -0.09950391
0.0790951 -0.008685927 -0.047066994 0.124056265 0.009934521 0.004819445 0.03510932 -0.0030821864
-0.10580306 0.012053275 0.017502232 -0.059455033 0.048516273 0.058291633 0.005650459 -0.06366851
0.015786873 0.010185996 -0.05760675 -0.050273664 0.034204595 -0.003864343 0.027143503 0.08549757
-0.016724644 -0.046771184 -0.0057302294 0.009452999 -0.051090647 -0.010151264 0.059268884 0.020087522
0.03433883 0.045086816 0.013942528 -0.025764316 0.03620904 -0.008197952 -0.042989817 -0.0028701
-0.0145134935 -0.013401295 0.01831356 0.022681555 0.0066267145 0.03863153 0.007763021 -0.035731662
0.018387176 -0.0013883265 -0.05241962 -0.02446478 0.003910554 0.05932378 -0.037884694 -0.036945347
0.019722864 0.0130041 -0.027886864 0.02389821 -0.038544714 0.0072160885 0.06465869 0.0029559704
0.04119807 0.08254099 -0.124128744 -0.07340883 0.038541246 0.0017439035 0.048549082 0.03224832
-0.013352511 0.018300353 0.027538046 -0.038904794 -0.049520474 -0.023521034 -0.014829566 -0.0579287
-0.043628152 0.015837556 0.04677008 0.0013584835 0.019064063 0.04096404 -0.012282823 -0.021978218
0.017261775 0.0022512907 -0.031676993 0.017844943 0.04852635 -0.034775853 -0.012603486 0.013232948
0.06621259 0.05412978 0.019545307 -0.016093118 -0.012925637 0.023238076 -0.05218112 -0.09036028
0.006207674 -0.028751232 -0.029644173 -0.026890583 0.027119452 0.035648037 0.004936311 0.021862883
0.029982492 -0.019563956 -0.015717883 0.041799564 0.07036635 -0.03202337 -0.0033579574 0.018890357
-0.023623487 -0.06358046 -0.001709097 0.043006692 -0.02236385 -0.013397136 0.031736746 -0.08196202
-0.021993604 -0.02046815 0.0213008 0.06358449 0.063670516 0.034789383 -0.005066451 0.07429707

blkresc.0.depthwconv.weight f4 [64, 64, 3, 3]
00000000: c679 0cbd 752e 71bd db42 6ebc f3dc ab3c
00000010: daeb 86bc 7089 a0bc 227c 2f3d 3d4c 9fbc
00000020: f991 bd3c e452 babc d452 20bd 7d3a eebc
00000030: f41d a73c b48d f2bc 0da5 4bbc d0db 1abc
00000040: 042d fcbb ff97 95b9 5aaa 1abd a85e 4abd
00000050: 2bb8 21bd 426e 023d 779a 3bbd a27e b5bc
00000060: 51eb 1a3d 2302 29bd eba5 20bd 49c1 7b3d
00000070: c1c9 b33b ed2f 11bd 0acc e53c 4ce6 013c
00000080: 4f13 293b 9e64 7f3d 292d ae3c c42d 20bb
00000090: 5776 07be d2c5 91bd 6424 f5bc 9faf a3bd
000000a0: 8e37 25bc 7f57 3c3a 2276 4c3b 7746 973d
000000b0: 3862 743d 2227 ccbc 852c 853b 2183 9dbc
000000c0: 6713 65bc fe0f f43c 06d3 e8bc d6e2 0a3c
000000d0: 673a ba3c 1017 66bd 0cc5 2dbc ed9a 70bb
000000e0: 76f3 8a3c a151 56bc 8363 e33c 4804 2ebd
000000f0: 6352 15bd 567b bcba 0678 0c3d ae28 dabc
00000100: c126 38bd bcd9 a6bc c1f3 1abd 2b3a 30bd
00000110: cd33 cdbc e2e2 8cbd 2d65 72bd f609 33bc
00000120: 3d4f 723d 73f7 423d 8f04 303c 2388 52bd
00000130: 73c4 083d 1687 fc3c 0bc2 a63b ff55 fa3c
00000140: 7849 5f3d 7d0b 9abc 941d 313d b0db eebc
00000150: 1db0 b2bb d4f3 693c 0309 1ebd 61a5 3ebc
00000160: 4924 483d 3c68 b73c de52 2f3c e548 1a3d
00000170: ef50 ac3c 7401 51bc 63a2 863c 2c4d b03c
00000180: e4e8 57bc fd09 f23c 5768 143d c2e9 cd3c
00000190: d7d9 253d 7f08 0e3d aa73 dc3c ee6e 92bc
000001a0: e0a7 02bd 06cf 543d 2d02 5bba 1acb 4b3c
000001b0: b16a 46bd f5f7 7b3a c6af a7bc 1506 9abc
000001c0: 625f 57bd 1f2a a6bc 41a1 67bd 6232 d23b
000001d0: 82c5 4d3b c053 70bc f510 22bc 4045 16bd
000001e0: 8e8a 983c 2a3c 0e3c 06e1 58bd 44e6 fe3a
000001f0: 81fb 6b3c 901d 71bd 43c5 713d 9d9f 933c
00000200: 7a89 083d b973 553d 1d25 4ebc 4b87 933c
00000210: d266 1b3d 83c9 03bd da87 87bc 12da d53c
00000220: 3e31 e13b 1c48 dfbc 969b 233d be58 0b3c
00000230: d0fa 4dbc 9ab3 043d 6390 84bc a64b 5ebc
00000240: c720 b9bc f8f2 113c 8dbc a23d ff2d 8fbc
00000250: 59e7 37bc 73ec 453d 0841 423d 3a9c 5dbc
00000260: da7f 853c d86f 47bd e5c9 20bd 38a2 0cbe
00000270: c012 02bd dab7 053d 228a 86bc 8482 e4bd
00000280: ea00 29bd 3eb4 5abd 366c 56bb de2e 93bd
00000290: 12c2 93bb 9435 333d 1341 ea3c 3c0e 393d
000002a0: e767 6f3b b79a 84bd 8b17 0e3d 7970 04bd
000002b0: 2232 063c 0345 f4bd 3008 b8bb dcfe bc3c
000002c0: 6f1b 40bd d32c d9bc 86e4 803d 5879 543c
000002d0: 24d1 d3bc bd01 f63c 98f8 5d3d 1e9b be3a
000002e0: 20d4 8f3c bc88 a23d 3acb e7bc 5baf ee3b
000002f0: 1cc8 d33d e6c5 873c 1a8f 173d 8c40 a1bd
00000300: f32c e63b 4367 3a3c dbc4 88bc ad6b cabb
00000310: 8d72 4fbc 41db c23b d9c8 793d e5db 743d
00000320: e034 073d 5bf7 7e3c 34a2 8a3c 6b23 dfbc
00000330: fcd9 acbc 2fe2 a5bc b9b9 96bd 8602 89ba
00000340: c4a6 4f3d 4ad8 c13c 9084 a0ba db0f db3c
00000350: c933 dfbc f728 2c3d 4035 2d3d 310e d83c
00000360: bb78 db3c f16e 283d 2310 463d 2f8e a93c
00000370: 8287 373d 35ba 673d 1f94 70bc 861b 3e3c
00000380: 9357 fc3c 807f 9f3c f0f2 623d 6447 6d3d
00000390: 4436 44bd b1af 55bc aecc 60bd 328b 7cbc
000003a0: 363f d3bc 946b 2cbd 5b4a a23c 0f44 063d
000003b0: 0c40 723c 424d 843c a372 1b3c bc7d 663c
000003c0: a9c9 943c 62c0 093d a5b9 b1ba 637c 263d
000003d0: 0c33 f53c 60b2 003d b64b 393d f2b8 01bc
000003e0: 328f 97bb 6a79 813c 0380 cf3c 79e7 093d
000003f0: 8112 f2bc bc1b d2bc 0ce7 a33d 837d 0c3d
-0.03429582 -0.058882196 -0.014542307 0.02097938 -0.016469885 -0.019596785 0.04284299 -0.019445533
0.023140894 -0.022744603 -0.03914149 -0.029080624 0.020400025 -0.029608585 -0.012429488 -0.009451821
-0.007695796 -0.0002853274 -0.037760116 -0.049406677 -0.039482277 0.03184343 -0.045801606 -0.02215511
0.03782207 -0.041261803 -0.03922073 0.061463628 0.0054866974 -0.035446096 0.028051395 0.007928442
0.0025798862 0.062351815 0.021261768 -0.002444134 -0.13228737 -0.07117809 -0.029924579 -0.079924814
-0.010084046 0.0007184669 0.0031198342 0.07386487 0.05966398 -0.024921004 0.004064145 -0.019227566
-0.013981677 0.029792782 -0.028420936 0.008476933 0.022732927 -0.056174338 -0.010606062 -0.0036713437
0.016961794 -0.013080985 0.027757412 -0.04248455 -0.036455523 -0.0014380019 0.03429415 -0.026630726
-0.044958834 -0.020367496 -0.037830118 -0.043024223 -0.025049115 -0.06879212 -0.05917852 -0.010927668
0.0591576 0.047599267 0.010743274 -0.05139936 0.033390474 0.030826133 0.0050890497 0.030558584
0.054513425 -0.018804306 0.0432411 -0.02915749 -0.0054531232 0.014279325 -0.038582813 -0.011636109
0.04886273 0.02238857 0.010700909 0.037667174 0.021034686 -0.012756694 0.016434854 0.021521173
-0.013178084 0.029545778 0.03623232 0.025135878 0.04049095 0.03467607 0.026910622 -0.017875161
-0.03189838 0.051955245 -0.0008354511 0.01243856 -0.048441593 0.00096118386 -0.020469557 -0.018801728
-0.0525812 -0.020283757 -0.056550268 0.0064146975 0.0031398241 -0.014668405 -0.009891738 -0.036687136
0.018620756 0.008681336 -0.052948974 0.0019447287 0.014403225 -0.058866084 0.059026014 0.018020445
0.033334233 0.052112315 -0.012582091 0.018008849 0.037939854 -0.0321746 -0.016544271 0.02610496
0.006872325 -0.027256064 0.0399433 0.0085050445 -0.012572005 0.032397844 -0.01618213 -0.013567841
-0.022598637 0.008908026 0.079461195 -0.017477987 -0.011224591 0.0483212 0.0474253 -0.013526017
0.016296316 -0.048690647 -0.03925504 -0.13733757 -0.031756163 0.032646038 -0.016423289 -0.111577064
-0.041260637 -0.05339455 -0.0032718307 -0.071866736 -0.004509219 0.043752268 0.028595483 0.04517959
0.0036530436 -0.06474822 0.03469042 -0.032333825 0.0081906635 -0.119272254 -0.0056162104 0.023070745
-0.046901163 -0.026510632 0.062935874 0.012968384 -0.025856562 0.030030126 0.054192156 0.0014542078
0.017557204 0.07936236 -0.028295148 0.0072840876 0.10340902 0.016573858 0.037001707 -0.078736395
0.0070244013 0.011377159 -0.01669543 -0.0061773867 -0.012661588 0.0059465473 0.06098256 0.05978002
0.03300941 0.015561904 0.016923048 -0.027238568 -0.021100037 -0.020249454 -0.073596425 -0.0010453023
0.05069615 0.023662705 -0.0012246538 0.026740959 -0.027246373 0.042031255 0.04228711 0.026373954
0.026790967 0.041121427 0.048355233 0.020697681 0.044806965 0.056574065 -0.014683752 0.011603242
0.030803477 0.019469976 0.055407465 0.05792941 -0.047903314 -0.013042376 -0.054882698 -0.015414046
-0.025786977 -0.042094782 0.019810846 0.03277975 0.014785778 0.01615012 0.009487781 0.014068063
0.018162565 0.033630736 -0.0013559355 0.04064597 0.029931568 0.03142011 0.04523822 -0.00791763
-0.0046252245 0.015804965 0.025329595 0.033668015 -0.029549839 -0.02564799 0.08003053 0.034299385

lastresc.weight f4 [1, 64, 3, 3]
00000000: 2072 673e 8066 43be 96d4 77be 6f44 0e3f
00000010: 46a2 ec3d b9bd 81be bcac 32be c84d 50be
00000020: 1ccc 64bf 499e 90be 1406 f5be 426e 8dbc
00000030: 510d fc3d 1c70 b0be 2a17 1dbe 4d0b 54be
00000040: 1fea fe3e 28dc dabe d8e7 173f aa2b 35bb
00000050: 7edc 113e 0425 893d 2a4d 8f3e 83c7 323d
00000060: 50d7 3c3f 7e96 dd3d ff1f f8be 977b f2bd
00000070: caff e83e d76a b53e 3876 cfbe ed31 dabe
00000080: 68e9 f9bd b0d0 533e 72ec 513e 7822 963e
00000090: 201a 6c3e 5c5f 3e3e adc0 31bf fe47 28be
000000a0: 4b19 aebe 54a6 b53e 6dd5 ec3d d49e c33e
000000b0: bfdb 83be 3087 e1be 1904 f2be ca24 723e
000000c0: 19af 8e3e be66 6c3e fcac 033f 8688 44be
000000d0: e9b4 e4be cd78 fa3e eb43 813e 19ab 12bf
000000e0: c766 703c 2e93 a1be 6b9f 963d fb4e 83bd
000000f0: dcda dabe 45f5 f43c 43a8 febe 13fa 973e
00000100: 62e4 12be 3730 3abf e976 23bd 1125 dc3e
00000110: b097 a83e 8264 823e 0bf8 05bf a735 14bf
00000120: b74c 5a3e a6f1 3d3e 9b01 e53c bd4e 2f3e
00000130: b8fd 44bf 9e34 3c3f fb70 273e 3351 29bc
00000140: 665e 80be 6598 32be 6342 6d3d 2c71 98be
00000150: 2331 9f3c 2161 323e 0f0f 803c a140 b83e
00000160: d415 003f 6af9 c93d 09bd 00bf 11b4 853e
00000170: c5d3 453f 9984 a43e 74a9 703e 51e7 95bb
00000180: d7fe e6be 9bbd 1b3f 1d93 b53d cc52 f23e
00000190: 71ee e23d 229a c73d c5fb 7e3d 4fef 603e
000001a0: e80c a1bd b49a e3bc e7da b93e d21d a83e
000001b0: 4969 1ebf 74f0 893e 8eb7 3fbe 6d5d b8bd
000001c0: 0d02 b63d a4b9 4fbe 91ff 5d3d 6e9b e13c
000001d0: bbbf 6d3e a5fd 1abf 11ab e73e 45db 98bd
000001e0: 3326 8c3e 610d 13bf 02ad 483e 7ae1 aabe
000001f0: f71d d53d 8475 ba3d 2ab5 a43e efca df3e
00000200: 3b9a f23e 7f07 013e 3dee cdbe 3ff5 10bf
00000210: a07c 303e 7207 45be 3d24 de3e 12c2 b3be
00000220: 15f9 49be 8bdc b93d 9388 533f 744c 113f
00000230: 77ee 503d 124a 5fbc c8c4 eabd 90de 203f
00000240: 1613 d8be 3b38 c83e 6974 0dbd f38b dd3d
00000250: f7ee 3e3c c218 f13e 5a08 afbc 5379 10be
00000260: 4dde ba3a 06e2 de3e 3db5 0abe c642 88be
00000270: 0739 8bbf f2cf 903d d88e 9ebe a696 9e3e
00000280: 9d14 4c3d 8429 113e 18c9 013e 6e92 c3bd
00000290: 5bce b83f 0d3a 3ebf 8ac5 7c3e e277 853e
000002a0: c967 3cbe bff8 ad3e 1602 45bf fddd 9c3e
000002b0: 5d26 7fbe 001a a03e e9ce e13c a515 873d
000002c0: 1573 e63c fdb6 22be 71e1 023e 5a8c a1be
000002d0: ab31 e8be 3411 f43d 440b 223f 1805 663e
000002e0: 25e4 7f3e 9457 44bf 0e3c eb3d b133 06be
000002f0: cfce f33c b2a7 ca3e 44d9 55be 8b8c ccbd
00000300: 715b 713e 6382 28bf b5a4 4c3e 19fa 90be
00000310: ebaf 3bbe ec95 58bf 6540 3fbc 3d64 223f
00000320: 5f66 0dbe 8c39 973e 7aa2 e9be 223a 603e
00000330: efd8 67bd cdca 1e3e 3d70 babc 733c 013e
00000340: 74fc 8c3e 6b4c 1cbf 1197 bf3e 9797 cbbe
00000350: 19e1 383e 39d9 803f 9625 103e 7b1e 553d
00000360: 05bb 6ebe f27b 08be 4e55 29bd e576 bdbd
00000370: f793 9fbe e2aa 9ebe 6bac b03e 642c 42bd
00000380: b707 a73e d292 95be 782d 213f 6860 a83e
00000390: 362e 963e 096a 9bbe d899 dfbe 6882 73bd
000003a0: b163 fc3d f755 21bf 8c38 2b3e 8394 3dbf
000003b0: dd79 7d3d dce5 0abe 406f 8abd 995c 2abf
000003c0: a0da 10bf 066c e93d d6a3 283f b2d1 57be
000003d0: 4f2c 303e 3ad2 ddbd b529 12be 07fe b4bd
000003e0: 46eb 743e 6b9d e9be 0e05 96be 3063 4fbd
000003f0: 81de 16bf 1e8f e43e 8dc0 20be 1aea 6cbe
0.22602129 -0.1908207 -0.24202189 0.5557317 0.11554389 -0.2534006 -0.17448705 -0.20342171
-0.89373946 -0.28245762 -0.478562 -0.01726449 0.123072274 -0.34460533 -0.15340868 -0.20707436
0.49787995 -0.4274609 0.5933814 -0.0027644434 0.14244267 0.06696513 0.2798856 0.0436473
0.7376604 0.1081972 -0.4846191 -0.11839979 0.45507652 0.35433075 -0.4051988 -0.42616215
-0.12202722 0.20685077 0.20500353 0.29323173 0.23056841 0.18591064 -0.69434625 -0.16433713
-0.34003672 0.3547846 0.11564145 0.38207114 -0.2575359 -0.44048452 -0.4726875 0.23646846
0.27867964 0.23086068 0.5143583 -0.19192705 -0.44669273 0.4892029 0.2524713 -0.57292324
0.0146729415 -0.31557602 0.07354625 -0.06411549 -0.427451 0.02990211 -0.49737749 0.2968298
-0.14344934 -0.7272982 -0.039908323 0.4299703 0.32928228 0.25467306 -0.5233161 -0.57894367
0.21318327 0.18549213 0.027954867 0.1711988 -0.76949644 0.7351779 0.16351692 -0.010334301
-0.2507202 -0.17440946 0.05792464 -0.29773843 0.01943261 0.17419864 0.01563218 0.35986808
0.5003331 0.09862025 -0.50288445 0.26113942 0.7727626 0.32132414 0.23502141 -0.004574694
-0.45116302 0.6083619 0.0886595 0.47328794 0.11080635 0.097461954 0.062251825 0.21966289
-0.0786379 -0.02778373 0.36299822 0.3283525 -0.618794 0.26941264 -0.18722364 -0.090021946
0.0888711 -0.2028566 0.054198805 0.027539935 0.2321767 -0.6054328 0.452477 -0.07463697
0.27372894 -0.5744229 0.19597247 -0.3337515 0.10406106 0.091044456 0.32169467 0.43709514
0.47383294 0.12600516 -0.40220824 -0.56624216 0.1723504 -0.19241121 0.43387023 -0.35109
-0.19723924 0.09075268 0.8263027 0.56757283 0.051008668 -0.0136285 -0.11463314 0.62839603
-0.4220206 0.391054 -0.034534846 0.10817709 0.011653653 0.470892 -0.021366287 -0.14108782
0.0014256925 0.43531817 -0.135457 -0.26613444 -1.0876778 0.070709124 -0.30968356 0.3097431
0.049824346 0.14175993 0.12674367 -0.095494136 1.4437975 -0.7430733 0.2468473 0.26068026
-0.18398966 0.3397884 -0.7695631 0.30638114 -0.24916978 0.31269836 0.027564483 0.06595925
0.028131047 -0.15890117 0.12781312 -0.31552392 -0.45350394 0.11917344 0.6329844 0.2246288
0.24989374 -0.76696134 0.11486064 -0.13105656 0.0297617 0.39581066 -0.20883662 -0.09987744
0.23570038 -0.65823954 0.19984706 -0.2831581 -0.18328826 -0.8460376 -0.011673068 0.634342
-0.13808583 0.29536092 -0.45631772 0.21897176 -0.05660337 0.1550705 -0.022758598 0.12620716
0.27536356 -0.61054105 0.37419942 -0.3976409 0.18054618 1.0066291 0.14076838 0.05203102
-0.2331353 -0.13328531 -0.04134112 -0.09251193 -0.31167576 -0.30989748 0.34506544 -0.047405615
0.32623073 -0.29213578 0.62960005 0.32886052 0.2933213 -0.30354336 -0.4367206 -0.059450537
0.12323702 -0.63021797 0.1672079 -0.74054736 0.061883796 -0.13564247 -0.067595005 -0.6654754
-0.56583595 0.11397557 0.65874994 -0.21076086 0.17204402 -0.10831113 -0.14273722 -0.08837514
0.23917875 -0.45627913 -0.2930073 -0.050631702 -0.58933264 0.4464044 -0.15698452 -0.23136178
